program(1.3)
[buildInfo = dict<string, string>({{"coremlc-component-MIL", "3510.2.1"}, {"coremlc-version", "3500.32.1"}, {"coremltools-component-torch", "2.1.2"}, {"coremltools-source-dialect", "TorchScript"}, {"coremltools-version", "9.0"}})]
{
    func main<ios18>(tensor<fp16, [1, 1, 512, 288]> last_mask, tensor<fp16, [1, 1, 1, 16, 257]> obj_memory, tensor<fp16, [1, 256, 32, 18]> pix_feat, tensor<fp16, [1, 1, 256, 32, 18]> pixel, tensor<fp16, [1, 1, 256, 32, 18]> sensory) {
            tensor<int32, [2]> last_mask_3_kernel_sizes_0 = const()[name = string("last_mask_3_kernel_sizes_0"), val = tensor<int32, [2]>([16, 16])];
            tensor<int32, [2]> last_mask_3_strides_0 = const()[name = string("last_mask_3_strides_0"), val = tensor<int32, [2]>([16, 16])];
            string last_mask_3_pad_type_0 = const()[name = string("last_mask_3_pad_type_0"), val = string("valid")];
            tensor<int32, [4]> last_mask_3_pad_0 = const()[name = string("last_mask_3_pad_0"), val = tensor<int32, [4]>([0, 0, 0, 0])];
            bool last_mask_3_ceil_mode_0 = const()[name = string("last_mask_3_ceil_mode_0"), val = bool(false)];
            bool last_mask_3_exclude_padding_from_average_0 = const()[name = string("last_mask_3_exclude_padding_from_average_0"), val = bool(false)];
            tensor<fp16, [1, 1, 32, 18]> last_mask_3_cast_fp16 = avg_pool(ceil_mode = last_mask_3_ceil_mode_0, exclude_padding_from_average = last_mask_3_exclude_padding_from_average_0, kernel_sizes = last_mask_3_kernel_sizes_0, pad = last_mask_3_pad_0, pad_type = last_mask_3_pad_type_0, strides = last_mask_3_strides_0, x = last_mask)[name = string("last_mask_3_cast_fp16")];
            int32 var_27 = const()[name = string("op_27"), val = int32(2)];
            int32 var_28 = const()[name = string("op_28"), val = int32(1)];
            tensor<int32, [1]> last_mask_axes_0 = const()[name = string("last_mask_axes_0"), val = tensor<int32, [1]>([2])];
            tensor<fp16, [1, 1, 1, 32, 18]> last_mask_cast_fp16 = expand_dims(axes = last_mask_axes_0, x = last_mask_3_cast_fp16)[name = string("last_mask_cast_fp16")];
            bool g_1_interleave_0 = const()[name = string("g_1_interleave_0"), val = bool(false)];
            tensor<fp16, [1, 1, 257, 32, 18]> g_1_cast_fp16 = concat(axis = var_27, interleave = g_1_interleave_0, values = (sensory, last_mask_cast_fp16))[name = string("g_1_cast_fp16")];
            tensor<int32, [4]> concat_0 = const()[name = string("concat_0"), val = tensor<int32, [4]>([1, 257, 32, 18])];
            tensor<fp16, [1, 257, 32, 18]> input_1_cast_fp16 = reshape(shape = concat_0, x = g_1_cast_fp16)[name = string("input_1_cast_fp16")];
            string g_3_pad_type_0 = const()[name = string("g_3_pad_type_0"), val = string("valid")];
            tensor<int32, [2]> g_3_strides_0 = const()[name = string("g_3_strides_0"), val = tensor<int32, [2]>([1, 1])];
            tensor<int32, [4]> g_3_pad_0 = const()[name = string("g_3_pad_0"), val = tensor<int32, [4]>([0, 0, 0, 0])];
            tensor<int32, [2]> g_3_dilations_0 = const()[name = string("g_3_dilations_0"), val = tensor<int32, [2]>([1, 1])];
            int32 g_3_groups_0 = const()[name = string("g_3_groups_0"), val = int32(1)];
            tensor<fp16, [256, 257, 1, 1]> m_pixel_fuser_sensory_compress_weight_to_fp16 = const()[name = string("m_pixel_fuser_sensory_compress_weight_to_fp16"), val = tensor<fp16, [256, 257, 1, 1]>(BLOBFILE(path = string("@model_path/weights/weight.bin"), offset = uint64(64)))];
            tensor<fp16, [256]> m_pixel_fuser_sensory_compress_bias_to_fp16 = const()[name = string("m_pixel_fuser_sensory_compress_bias_to_fp16"), val = tensor<fp16, [256]>(BLOBFILE(path = string("@model_path/weights/weight.bin"), offset = uint64(131712)))];
            tensor<fp16, [1, 256, 32, 18]> g_3_cast_fp16 = conv(bias = m_pixel_fuser_sensory_compress_bias_to_fp16, dilations = g_3_dilations_0, groups = g_3_groups_0, pad = g_3_pad_0, pad_type = g_3_pad_type_0, strides = g_3_strides_0, weight = m_pixel_fuser_sensory_compress_weight_to_fp16, x = input_1_cast_fp16)[name = string("g_3_cast_fp16")];
            tensor<int32, [5]> var_59 = const()[name = string("op_59"), val = tensor<int32, [5]>([1, 1, 256, 32, 18])];
            tensor<fp16, [1, 1, 256, 32, 18]> sensory_readout_cast_fp16 = reshape(shape = var_59, x = g_3_cast_fp16)[name = string("sensory_readout_cast_fp16")];
            tensor<fp16, [1, 1, 256, 32, 18]> g_5_cast_fp16 = add(x = pixel, y = sensory_readout_cast_fp16)[name = string("g_5_cast_fp16")];
            string x_1_pad_type_0 = const()[name = string("x_1_pad_type_0"), val = string("valid")];
            tensor<int32, [2]> x_1_strides_0 = const()[name = string("x_1_strides_0"), val = tensor<int32, [2]>([1, 1])];
            tensor<int32, [4]> x_1_pad_0 = const()[name = string("x_1_pad_0"), val = tensor<int32, [4]>([0, 0, 0, 0])];
            tensor<int32, [2]> x_1_dilations_0 = const()[name = string("x_1_dilations_0"), val = tensor<int32, [2]>([1, 1])];
            int32 x_1_groups_0 = const()[name = string("x_1_groups_0"), val = int32(1)];
            tensor<fp16, [256, 256, 1, 1]> m_pixel_fuser_fuser_distributor_x_transform_weight_to_fp16 = const()[name = string("m_pixel_fuser_fuser_distributor_x_transform_weight_to_fp16"), val = tensor<fp16, [256, 256, 1, 1]>(BLOBFILE(path = string("@model_path/weights/weight.bin"), offset = uint64(132288)))];
            tensor<fp16, [256]> m_pixel_fuser_fuser_distributor_x_transform_bias_to_fp16 = const()[name = string("m_pixel_fuser_fuser_distributor_x_transform_bias_to_fp16"), val = tensor<fp16, [256]>(BLOBFILE(path = string("@model_path/weights/weight.bin"), offset = uint64(263424)))];
            tensor<fp16, [1, 256, 32, 18]> x_1_cast_fp16 = conv(bias = m_pixel_fuser_fuser_distributor_x_transform_bias_to_fp16, dilations = x_1_dilations_0, groups = x_1_groups_0, pad = x_1_pad_0, pad_type = x_1_pad_type_0, strides = x_1_strides_0, weight = m_pixel_fuser_fuser_distributor_x_transform_weight_to_fp16, x = pix_feat)[name = string("x_1_cast_fp16")];
            tensor<int32, [4]> concat_1 = const()[name = string("concat_1"), val = tensor<int32, [4]>([1, 256, 32, 18])];
            tensor<fp16, [1, 256, 32, 18]> input_3_cast_fp16 = reshape(shape = concat_1, x = g_5_cast_fp16)[name = string("input_3_cast_fp16")];
            string g_7_pad_type_0 = const()[name = string("g_7_pad_type_0"), val = string("valid")];
            tensor<int32, [2]> g_7_strides_0 = const()[name = string("g_7_strides_0"), val = tensor<int32, [2]>([1, 1])];
            tensor<int32, [4]> g_7_pad_0 = const()[name = string("g_7_pad_0"), val = tensor<int32, [4]>([0, 0, 0, 0])];
            tensor<int32, [2]> g_7_dilations_0 = const()[name = string("g_7_dilations_0"), val = tensor<int32, [2]>([1, 1])];
            int32 g_7_groups_0 = const()[name = string("g_7_groups_0"), val = int32(1)];
            tensor<fp16, [256, 256, 1, 1]> m_pixel_fuser_fuser_distributor_g_transform_weight_to_fp16 = const()[name = string("m_pixel_fuser_fuser_distributor_g_transform_weight_to_fp16"), val = tensor<fp16, [256, 256, 1, 1]>(BLOBFILE(path = string("@model_path/weights/weight.bin"), offset = uint64(264000)))];
            tensor<fp16, [256]> m_pixel_fuser_fuser_distributor_g_transform_bias_to_fp16 = const()[name = string("m_pixel_fuser_fuser_distributor_g_transform_bias_to_fp16"), val = tensor<fp16, [256]>(BLOBFILE(path = string("@model_path/weights/weight.bin"), offset = uint64(395136)))];
            tensor<fp16, [1, 256, 32, 18]> g_7_cast_fp16 = conv(bias = m_pixel_fuser_fuser_distributor_g_transform_bias_to_fp16, dilations = g_7_dilations_0, groups = g_7_groups_0, pad = g_7_pad_0, pad_type = g_7_pad_type_0, strides = g_7_strides_0, weight = m_pixel_fuser_fuser_distributor_g_transform_weight_to_fp16, x = input_3_cast_fp16)[name = string("g_7_cast_fp16")];
            tensor<int32, [5]> var_95 = const()[name = string("op_95"), val = tensor<int32, [5]>([1, 1, 256, 32, 18])];
            tensor<fp16, [1, 1, 256, 32, 18]> g_9_cast_fp16 = reshape(shape = var_95, x = g_7_cast_fp16)[name = string("g_9_cast_fp16")];
            tensor<int32, [1]> var_97_axes_0 = const()[name = string("op_97_axes_0"), val = tensor<int32, [1]>([1])];
            tensor<fp16, [1, 1, 256, 32, 18]> var_97_cast_fp16 = expand_dims(axes = var_97_axes_0, x = x_1_cast_fp16)[name = string("op_97_cast_fp16")];
            tensor<fp16, [1, 1, 256, 32, 18]> g_11_cast_fp16 = add(x = var_97_cast_fp16, y = g_9_cast_fp16)[name = string("g_11_cast_fp16")];
            tensor<int32, [4]> concat_3 = const()[name = string("concat_3"), val = tensor<int32, [4]>([1, 256, 32, 18])];
            tensor<fp16, [1, 256, 32, 18]> input_5_cast_fp16 = reshape(shape = concat_3, x = g_11_cast_fp16)[name = string("input_5_cast_fp16")];
            tensor<fp16, [1, 256, 32, 18]> input_7_cast_fp16 = relu(x = input_5_cast_fp16)[name = string("input_7_cast_fp16")];
            string input_9_pad_type_0 = const()[name = string("input_9_pad_type_0"), val = string("custom")];
            tensor<int32, [4]> input_9_pad_0 = const()[name = string("input_9_pad_0"), val = tensor<int32, [4]>([1, 1, 1, 1])];
            tensor<int32, [2]> input_9_strides_0 = const()[name = string("input_9_strides_0"), val = tensor<int32, [2]>([1, 1])];
            tensor<int32, [2]> input_9_dilations_0 = const()[name = string("input_9_dilations_0"), val = tensor<int32, [2]>([1, 1])];
            int32 input_9_groups_0 = const()[name = string("input_9_groups_0"), val = int32(1)];
            tensor<fp16, [256, 256, 3, 3]> m_pixel_fuser_fuser_block1_conv1_weight_to_fp16 = const()[name = string("m_pixel_fuser_fuser_block1_conv1_weight_to_fp16"), val = tensor<fp16, [256, 256, 3, 3]>(BLOBFILE(path = string("@model_path/weights/weight.bin"), offset = uint64(395712)))];
            tensor<fp16, [256]> m_pixel_fuser_fuser_block1_conv1_bias_to_fp16 = const()[name = string("m_pixel_fuser_fuser_block1_conv1_bias_to_fp16"), val = tensor<fp16, [256]>(BLOBFILE(path = string("@model_path/weights/weight.bin"), offset = uint64(1575424)))];
            tensor<fp16, [1, 256, 32, 18]> input_9_cast_fp16 = conv(bias = m_pixel_fuser_fuser_block1_conv1_bias_to_fp16, dilations = input_9_dilations_0, groups = input_9_groups_0, pad = input_9_pad_0, pad_type = input_9_pad_type_0, strides = input_9_strides_0, weight = m_pixel_fuser_fuser_block1_conv1_weight_to_fp16, x = input_7_cast_fp16)[name = string("input_9_cast_fp16")];
            tensor<fp16, [1, 256, 32, 18]> input_11_cast_fp16 = relu(x = input_9_cast_fp16)[name = string("input_11_cast_fp16")];
            string x_5_pad_type_0 = const()[name = string("x_5_pad_type_0"), val = string("custom")];
            tensor<int32, [4]> x_5_pad_0 = const()[name = string("x_5_pad_0"), val = tensor<int32, [4]>([1, 1, 1, 1])];
            tensor<int32, [2]> x_5_strides_0 = const()[name = string("x_5_strides_0"), val = tensor<int32, [2]>([1, 1])];
            tensor<int32, [2]> x_5_dilations_0 = const()[name = string("x_5_dilations_0"), val = tensor<int32, [2]>([1, 1])];
            int32 x_5_groups_0 = const()[name = string("x_5_groups_0"), val = int32(1)];
            tensor<fp16, [256, 256, 3, 3]> m_pixel_fuser_fuser_block1_conv2_weight_to_fp16 = const()[name = string("m_pixel_fuser_fuser_block1_conv2_weight_to_fp16"), val = tensor<fp16, [256, 256, 3, 3]>(BLOBFILE(path = string("@model_path/weights/weight.bin"), offset = uint64(1576000)))];
            tensor<fp16, [256]> m_pixel_fuser_fuser_block1_conv2_bias_to_fp16 = const()[name = string("m_pixel_fuser_fuser_block1_conv2_bias_to_fp16"), val = tensor<fp16, [256]>(BLOBFILE(path = string("@model_path/weights/weight.bin"), offset = uint64(2755712)))];
            tensor<fp16, [1, 256, 32, 18]> x_5_cast_fp16 = conv(bias = m_pixel_fuser_fuser_block1_conv2_bias_to_fp16, dilations = x_5_dilations_0, groups = x_5_groups_0, pad = x_5_pad_0, pad_type = x_5_pad_type_0, strides = x_5_strides_0, weight = m_pixel_fuser_fuser_block1_conv2_weight_to_fp16, x = input_11_cast_fp16)[name = string("x_5_cast_fp16")];
            tensor<int32, [2]> w_1_axes_0 = const()[name = string("w_1_axes_0"), val = tensor<int32, [2]>([-2, -1])];
            bool w_1_keep_dims_0 = const()[name = string("w_1_keep_dims_0"), val = bool(true)];
            tensor<fp16, [1, 256, 1, 1]> w_1_cast_fp16 = reduce_mean(axes = w_1_axes_0, keep_dims = w_1_keep_dims_0, x = x_5_cast_fp16)[name = string("w_1_cast_fp16")];
            tensor<int32, [4]> var_126 = const()[name = string("op_126"), val = tensor<int32, [4]>([1, 1, 256, 1])];
            tensor<fp16, [1, 1, 256, 1]> w_3_cast_fp16 = reshape(shape = var_126, x = w_1_cast_fp16)[name = string("w_3_cast_fp16")];
            string w_5_pad_type_0 = const()[name = string("w_5_pad_type_0"), val = string("custom")];
            tensor<int32, [4]> w_5_pad_0 = const()[name = string("w_5_pad_0"), val = tensor<int32, [4]>([2, 2, 0, 0])];
            tensor<int32, [2]> w_5_strides_0 = const()[name = string("w_5_strides_0"), val = tensor<int32, [2]>([1, 1])];
            tensor<int32, [2]> w_5_dilations_0 = const()[name = string("w_5_dilations_0"), val = tensor<int32, [2]>([1, 1])];
            int32 w_5_groups_0 = const()[name = string("w_5_groups_0"), val = int32(1)];
            tensor<fp16, [1, 1, 5, 1]> k2_1_to_fp16 = const()[name = string("k2_1_to_fp16"), val = tensor<fp16, [1, 1, 5, 1]>([[[[0x1.cb4p-5], [-0x1.f38p-2], [-0x1.fe8p-2], [-0x1.5fp-1], [-0x1.cf4p-5]]]])];
            tensor<fp16, [1, 1, 256, 1]> w_5_cast_fp16 = conv(dilations = w_5_dilations_0, groups = w_5_groups_0, pad = w_5_pad_0, pad_type = w_5_pad_type_0, strides = w_5_strides_0, weight = k2_1_to_fp16, x = w_3_cast_fp16)[name = string("w_5_cast_fp16")];
            tensor<int32, [4]> var_134 = const()[name = string("op_134"), val = tensor<int32, [4]>([1, 256, 1, 1])];
            tensor<fp16, [1, 256, 1, 1]> var_135_cast_fp16 = reshape(shape = var_134, x = w_5_cast_fp16)[name = string("op_135_cast_fp16")];
            tensor<fp16, [1, 256, 1, 1]> w_7_cast_fp16 = sigmoid(x = var_135_cast_fp16)[name = string("w_7_cast_fp16")];
            tensor<fp16, [1, 256, 32, 18]> var_137_cast_fp16 = mul(x = x_5_cast_fp16, y = w_7_cast_fp16)[name = string("op_137_cast_fp16")];
            tensor<fp16, [1, 256, 32, 18]> input_13_cast_fp16 = add(x = var_137_cast_fp16, y = input_5_cast_fp16)[name = string("input_13_cast_fp16")];
            tensor<fp16, [1, 256, 32, 18]> input_15_cast_fp16 = relu(x = input_13_cast_fp16)[name = string("input_15_cast_fp16")];
            string input_17_pad_type_0 = const()[name = string("input_17_pad_type_0"), val = string("custom")];
            tensor<int32, [4]> input_17_pad_0 = const()[name = string("input_17_pad_0"), val = tensor<int32, [4]>([1, 1, 1, 1])];
            tensor<int32, [2]> input_17_strides_0 = const()[name = string("input_17_strides_0"), val = tensor<int32, [2]>([1, 1])];
            tensor<int32, [2]> input_17_dilations_0 = const()[name = string("input_17_dilations_0"), val = tensor<int32, [2]>([1, 1])];
            int32 input_17_groups_0 = const()[name = string("input_17_groups_0"), val = int32(1)];
            tensor<fp16, [256, 256, 3, 3]> m_pixel_fuser_fuser_block2_conv1_weight_to_fp16 = const()[name = string("m_pixel_fuser_fuser_block2_conv1_weight_to_fp16"), val = tensor<fp16, [256, 256, 3, 3]>(BLOBFILE(path = string("@model_path/weights/weight.bin"), offset = uint64(2756288)))];
            tensor<fp16, [256]> m_pixel_fuser_fuser_block2_conv1_bias_to_fp16 = const()[name = string("m_pixel_fuser_fuser_block2_conv1_bias_to_fp16"), val = tensor<fp16, [256]>(BLOBFILE(path = string("@model_path/weights/weight.bin"), offset = uint64(3936000)))];
            tensor<fp16, [1, 256, 32, 18]> input_17_cast_fp16 = conv(bias = m_pixel_fuser_fuser_block2_conv1_bias_to_fp16, dilations = input_17_dilations_0, groups = input_17_groups_0, pad = input_17_pad_0, pad_type = input_17_pad_type_0, strides = input_17_strides_0, weight = m_pixel_fuser_fuser_block2_conv1_weight_to_fp16, x = input_15_cast_fp16)[name = string("input_17_cast_fp16")];
            tensor<fp16, [1, 256, 32, 18]> input_19_cast_fp16 = relu(x = input_17_cast_fp16)[name = string("input_19_cast_fp16")];
            string x_7_pad_type_0 = const()[name = string("x_7_pad_type_0"), val = string("custom")];
            tensor<int32, [4]> x_7_pad_0 = const()[name = string("x_7_pad_0"), val = tensor<int32, [4]>([1, 1, 1, 1])];
            tensor<int32, [2]> x_7_strides_0 = const()[name = string("x_7_strides_0"), val = tensor<int32, [2]>([1, 1])];
            tensor<int32, [2]> x_7_dilations_0 = const()[name = string("x_7_dilations_0"), val = tensor<int32, [2]>([1, 1])];
            int32 x_7_groups_0 = const()[name = string("x_7_groups_0"), val = int32(1)];
            tensor<fp16, [256, 256, 3, 3]> m_pixel_fuser_fuser_block2_conv2_weight_to_fp16 = const()[name = string("m_pixel_fuser_fuser_block2_conv2_weight_to_fp16"), val = tensor<fp16, [256, 256, 3, 3]>(BLOBFILE(path = string("@model_path/weights/weight.bin"), offset = uint64(3936576)))];
            tensor<fp16, [256]> m_pixel_fuser_fuser_block2_conv2_bias_to_fp16 = const()[name = string("m_pixel_fuser_fuser_block2_conv2_bias_to_fp16"), val = tensor<fp16, [256]>(BLOBFILE(path = string("@model_path/weights/weight.bin"), offset = uint64(5116288)))];
            tensor<fp16, [1, 256, 32, 18]> x_7_cast_fp16 = conv(bias = m_pixel_fuser_fuser_block2_conv2_bias_to_fp16, dilations = x_7_dilations_0, groups = x_7_groups_0, pad = x_7_pad_0, pad_type = x_7_pad_type_0, strides = x_7_strides_0, weight = m_pixel_fuser_fuser_block2_conv2_weight_to_fp16, x = input_19_cast_fp16)[name = string("x_7_cast_fp16")];
            tensor<int32, [2]> w_9_axes_0 = const()[name = string("w_9_axes_0"), val = tensor<int32, [2]>([-2, -1])];
            bool w_9_keep_dims_0 = const()[name = string("w_9_keep_dims_0"), val = bool(true)];
            tensor<fp16, [1, 256, 1, 1]> w_9_cast_fp16 = reduce_mean(axes = w_9_axes_0, keep_dims = w_9_keep_dims_0, x = x_7_cast_fp16)[name = string("w_9_cast_fp16")];
            tensor<int32, [4]> var_163 = const()[name = string("op_163"), val = tensor<int32, [4]>([1, 1, 256, 1])];
            tensor<fp16, [1, 1, 256, 1]> w_11_cast_fp16 = reshape(shape = var_163, x = w_9_cast_fp16)[name = string("w_11_cast_fp16")];
            string w_13_pad_type_0 = const()[name = string("w_13_pad_type_0"), val = string("custom")];
            tensor<int32, [4]> w_13_pad_0 = const()[name = string("w_13_pad_0"), val = tensor<int32, [4]>([2, 2, 0, 0])];
            tensor<int32, [2]> w_13_strides_0 = const()[name = string("w_13_strides_0"), val = tensor<int32, [2]>([1, 1])];
            tensor<int32, [2]> w_13_dilations_0 = const()[name = string("w_13_dilations_0"), val = tensor<int32, [2]>([1, 1])];
            int32 w_13_groups_0 = const()[name = string("w_13_groups_0"), val = int32(1)];
            tensor<fp16, [1, 1, 5, 1]> k2_3_to_fp16 = const()[name = string("k2_3_to_fp16"), val = tensor<fp16, [1, 1, 5, 1]>([[[[-0x1.8p-2], [-0x1.a3cp-2], [-0x1.0d4p-3], [-0x1.2ep-2], [-0x1.2ep-5]]]])];
            tensor<fp16, [1, 1, 256, 1]> w_13_cast_fp16 = conv(dilations = w_13_dilations_0, groups = w_13_groups_0, pad = w_13_pad_0, pad_type = w_13_pad_type_0, strides = w_13_strides_0, weight = k2_3_to_fp16, x = w_11_cast_fp16)[name = string("w_13_cast_fp16")];
            tensor<int32, [4]> var_171 = const()[name = string("op_171"), val = tensor<int32, [4]>([1, 256, 1, 1])];
            tensor<fp16, [1, 256, 1, 1]> var_172_cast_fp16 = reshape(shape = var_171, x = w_13_cast_fp16)[name = string("op_172_cast_fp16")];
            tensor<fp16, [1, 256, 1, 1]> w_15_cast_fp16 = sigmoid(x = var_172_cast_fp16)[name = string("w_15_cast_fp16")];
            tensor<fp16, [1, 256, 32, 18]> var_174_cast_fp16 = mul(x = x_7_cast_fp16, y = w_15_cast_fp16)[name = string("op_174_cast_fp16")];
            tensor<fp16, [1, 256, 32, 18]> g_13_cast_fp16 = add(x = var_174_cast_fp16, y = input_13_cast_fp16)[name = string("g_13_cast_fp16")];
            tensor<int32, [5]> var_179 = const()[name = string("op_179"), val = tensor<int32, [5]>([1, 1, 256, 32, 18])];
            tensor<fp16, [1, 1, 256, 32, 18]> p16_cast_fp16 = reshape(shape = var_179, x = g_13_cast_fp16)[name = string("p16_cast_fp16")];
            bool pixel_interleave_0 = const()[name = string("pixel_interleave_0"), val = bool(false)];
            tensor<fp16, [1, 1, 256, 32, 18]> pixel_cast_fp16 = concat(axis = var_28, interleave = pixel_interleave_0, values = p16_cast_fp16)[name = string("pixel_cast_fp16")];
            int32 var_201 = const()[name = string("op_201"), val = int32(-1)];
            int32 var_209 = const()[name = string("op_209"), val = int32(1)];
            tensor<int32, [4]> var_240 = const()[name = string("op_240"), val = tensor<int32, [4]>([1, 1, 16, 257])];
            tensor<fp16, [1, 1, 16, 257]> obj_summaries_cast_fp16 = reshape(shape = var_240, x = obj_memory)[name = string("obj_summaries_cast_fp16")];
            tensor<int32, [4]> var_245_begin_0 = const()[name = string("op_245_begin_0"), val = tensor<int32, [4]>([0, 0, 0, 0])];
            tensor<int32, [4]> var_245_end_0 = const()[name = string("op_245_end_0"), val = tensor<int32, [4]>([1, 1, 16, 256])];
            tensor<bool, [4]> var_245_end_mask_0 = const()[name = string("op_245_end_mask_0"), val = tensor<bool, [4]>([true, true, true, false])];
            tensor<fp16, [1, 1, 16, 256]> var_245_cast_fp16 = slice_by_index(begin = var_245_begin_0, end = var_245_end_0, end_mask = var_245_end_mask_0, x = obj_summaries_cast_fp16)[name = string("op_245_cast_fp16")];
            tensor<int32, [1]> obj_sums_axes_0 = const()[name = string("obj_sums_axes_0"), val = tensor<int32, [1]>([1])];
            bool obj_sums_keep_dims_0 = const()[name = string("obj_sums_keep_dims_0"), val = bool(false)];
            tensor<fp16, [1, 16, 256]> obj_sums_cast_fp16 = reduce_sum(axes = obj_sums_axes_0, keep_dims = obj_sums_keep_dims_0, x = var_245_cast_fp16)[name = string("obj_sums_cast_fp16")];
            tensor<int32, [4]> var_251_begin_0 = const()[name = string("op_251_begin_0"), val = tensor<int32, [4]>([0, 0, 0, 256])];
            tensor<int32, [4]> var_251_end_0 = const()[name = string("op_251_end_0"), val = tensor<int32, [4]>([1, 1, 16, 1])];
            tensor<bool, [4]> var_251_end_mask_0 = const()[name = string("op_251_end_mask_0"), val = tensor<bool, [4]>([true, true, true, true])];
            tensor<fp16, [1, 1, 16, 1]> var_251_cast_fp16 = slice_by_index(begin = var_251_begin_0, end = var_251_end_0, end_mask = var_251_end_mask_0, x = obj_summaries_cast_fp16)[name = string("op_251_cast_fp16")];
            tensor<int32, [1]> obj_area_axes_0 = const()[name = string("obj_area_axes_0"), val = tensor<int32, [1]>([1])];
            bool obj_area_keep_dims_0 = const()[name = string("obj_area_keep_dims_0"), val = bool(false)];
            tensor<fp16, [1, 16, 1]> obj_area_cast_fp16 = reduce_sum(axes = obj_area_axes_0, keep_dims = obj_area_keep_dims_0, x = var_251_cast_fp16)[name = string("obj_area_cast_fp16")];
            fp16 var_254_to_fp16 = const()[name = string("op_254_to_fp16"), val = fp16(0x1.a38p-14)];
            tensor<fp16, [1, 16, 1]> var_255_cast_fp16 = add(x = obj_area_cast_fp16, y = var_254_to_fp16)[name = string("op_255_cast_fp16")];
            tensor<fp16, [1, 16, 256]> input_21_cast_fp16 = real_div(x = obj_sums_cast_fp16, y = var_255_cast_fp16)[name = string("input_21_cast_fp16")];
            tensor<fp16, [256, 256]> m_object_transformer_summary_to_query_init_weight_to_fp16 = const()[name = string("m_object_transformer_summary_to_query_init_weight_to_fp16"), val = tensor<fp16, [256, 256]>(BLOBFILE(path = string("@model_path/weights/weight.bin"), offset = uint64(5116864)))];
            tensor<fp16, [256]> m_object_transformer_summary_to_query_init_bias_to_fp16 = const()[name = string("m_object_transformer_summary_to_query_init_bias_to_fp16"), val = tensor<fp16, [256]>(BLOBFILE(path = string("@model_path/weights/weight.bin"), offset = uint64(5248000)))];
            tensor<fp16, [1, 16, 256]> linear_0_cast_fp16 = linear(bias = m_object_transformer_summary_to_query_init_bias_to_fp16, weight = m_object_transformer_summary_to_query_init_weight_to_fp16, x = input_21_cast_fp16)[name = string("linear_0_cast_fp16")];
            tensor<fp16, [256, 256]> m_object_transformer_summary_to_query_emb_weight_to_fp16 = const()[name = string("m_object_transformer_summary_to_query_emb_weight_to_fp16"), val = tensor<fp16, [256, 256]>(BLOBFILE(path = string("@model_path/weights/weight.bin"), offset = uint64(5248576)))];
            tensor<fp16, [256]> m_object_transformer_summary_to_query_emb_bias_to_fp16 = const()[name = string("m_object_transformer_summary_to_query_emb_bias_to_fp16"), val = tensor<fp16, [256]>(BLOBFILE(path = string("@model_path/weights/weight.bin"), offset = uint64(5379712)))];
            tensor<fp16, [1, 16, 256]> linear_1_cast_fp16 = linear(bias = m_object_transformer_summary_to_query_emb_bias_to_fp16, weight = m_object_transformer_summary_to_query_emb_weight_to_fp16, x = input_21_cast_fp16)[name = string("linear_1_cast_fp16")];
            tensor<fp16, [1, 16, 256]> var_263_to_fp16 = const()[name = string("op_263_to_fp16"), val = tensor<fp16, [1, 16, 256]>(BLOBFILE(path = string("@model_path/weights/weight.bin"), offset = uint64(5380288)))];
            tensor<fp16, [1, 16, 256]> input_31_cast_fp16 = add(x = var_263_to_fp16, y = linear_0_cast_fp16)[name = string("input_31_cast_fp16")];
            tensor<fp16, [1, 16, 256]> var_269_to_fp16 = const()[name = string("op_269_to_fp16"), val = tensor<fp16, [1, 16, 256]>(BLOBFILE(path = string("@model_path/weights/weight.bin"), offset = uint64(5388544)))];
            tensor<fp16, [1, 16, 256]> x_pe_cast_fp16 = add(x = var_269_to_fp16, y = linear_1_cast_fp16)[name = string("x_pe_cast_fp16")];
            tensor<int32, [4]> concat_6 = const()[name = string("concat_6"), val = tensor<int32, [4]>([1, 256, 32, 18])];
            tensor<fp16, [1, 256, 32, 18]> input_23_cast_fp16 = reshape(shape = concat_6, x = pixel_cast_fp16)[name = string("input_23_cast_fp16")];
            string g_15_pad_type_0 = const()[name = string("g_15_pad_type_0"), val = string("valid")];
            tensor<int32, [2]> g_15_strides_0 = const()[name = string("g_15_strides_0"), val = tensor<int32, [2]>([1, 1])];
            tensor<int32, [4]> g_15_pad_0 = const()[name = string("g_15_pad_0"), val = tensor<int32, [4]>([0, 0, 0, 0])];
            tensor<int32, [2]> g_15_dilations_0 = const()[name = string("g_15_dilations_0"), val = tensor<int32, [2]>([1, 1])];
            int32 g_15_groups_0 = const()[name = string("g_15_groups_0"), val = int32(1)];
            tensor<fp16, [256, 256, 1, 1]> m_object_transformer_pixel_init_proj_weight_to_fp16 = const()[name = string("m_object_transformer_pixel_init_proj_weight_to_fp16"), val = tensor<fp16, [256, 256, 1, 1]>(BLOBFILE(path = string("@model_path/weights/weight.bin"), offset = uint64(5396800)))];
            tensor<fp16, [256]> m_object_transformer_pixel_init_proj_bias_to_fp16 = const()[name = string("m_object_transformer_pixel_init_proj_bias_to_fp16"), val = tensor<fp16, [256]>(BLOBFILE(path = string("@model_path/weights/weight.bin"), offset = uint64(5527936)))];
            tensor<fp16, [1, 256, 32, 18]> g_15_cast_fp16 = conv(bias = m_object_transformer_pixel_init_proj_bias_to_fp16, dilations = g_15_dilations_0, groups = g_15_groups_0, pad = g_15_pad_0, pad_type = g_15_pad_type_0, strides = g_15_strides_0, weight = m_object_transformer_pixel_init_proj_weight_to_fp16, x = input_23_cast_fp16)[name = string("g_15_cast_fp16")];
            tensor<int32, [5]> var_288 = const()[name = string("op_288"), val = tensor<int32, [5]>([1, 1, 256, 32, 18])];
            tensor<fp16, [1, 1, 256, 32, 18]> input_27_cast_fp16 = reshape(shape = var_288, x = g_15_cast_fp16)[name = string("input_27_cast_fp16")];
            string g_17_pad_type_0 = const()[name = string("g_17_pad_type_0"), val = string("valid")];
            tensor<int32, [2]> g_17_strides_0 = const()[name = string("g_17_strides_0"), val = tensor<int32, [2]>([1, 1])];
            tensor<int32, [4]> g_17_pad_0 = const()[name = string("g_17_pad_0"), val = tensor<int32, [4]>([0, 0, 0, 0])];
            tensor<int32, [2]> g_17_dilations_0 = const()[name = string("g_17_dilations_0"), val = tensor<int32, [2]>([1, 1])];
            int32 g_17_groups_0 = const()[name = string("g_17_groups_0"), val = int32(1)];
            tensor<fp16, [256, 256, 1, 1]> m_object_transformer_pixel_emb_proj_weight_to_fp16 = const()[name = string("m_object_transformer_pixel_emb_proj_weight_to_fp16"), val = tensor<fp16, [256, 256, 1, 1]>(BLOBFILE(path = string("@model_path/weights/weight.bin"), offset = uint64(5528512)))];
            tensor<fp16, [256]> m_object_transformer_pixel_emb_proj_bias_to_fp16 = const()[name = string("m_object_transformer_pixel_emb_proj_bias_to_fp16"), val = tensor<fp16, [256]>(BLOBFILE(path = string("@model_path/weights/weight.bin"), offset = uint64(5659648)))];
            tensor<fp16, [1, 256, 32, 18]> g_17_cast_fp16 = conv(bias = m_object_transformer_pixel_emb_proj_bias_to_fp16, dilations = g_17_dilations_0, groups = g_17_groups_0, pad = g_17_pad_0, pad_type = g_17_pad_type_0, strides = g_17_strides_0, weight = m_object_transformer_pixel_emb_proj_weight_to_fp16, x = input_23_cast_fp16)[name = string("g_17_cast_fp16")];
            tensor<int32, [3]> concat_32 = const()[name = string("concat_32"), val = tensor<int32, [3]>([1, 256, 576])];
            tensor<fp16, [1, 256, 576]> var_361_cast_fp16 = reshape(shape = concat_32, x = g_17_cast_fp16)[name = string("op_361_cast_fp16")];
            tensor<int32, [3]> var_362_perm_0 = const()[name = string("op_362_perm_0"), val = tensor<int32, [3]>([0, 2, 1])];
            tensor<fp16, [1, 576, 256]> var_364_to_fp16 = const()[name = string("op_364_to_fp16"), val = tensor<fp16, [1, 576, 256]>(BLOBFILE(path = string("@model_path/weights/weight.bin"), offset = uint64(5660224)))];
            tensor<fp16, [1, 576, 256]> var_362_cast_fp16 = transpose(perm = var_362_perm_0, x = var_361_cast_fp16)[name = string("transpose_91")];
            tensor<fp16, [1, 576, 256]> mem_pe_cast_fp16 = add(x = var_364_to_fp16, y = var_362_cast_fp16)[name = string("mem_pe_cast_fp16")];
            tensor<fp16, [1, 1, 256, 32, 18]> g_19_cast_fp16 = relu(x = input_27_cast_fp16)[name = string("g_19_cast_fp16")];
            tensor<int32, [4]> concat_34 = const()[name = string("concat_34"), val = tensor<int32, [4]>([1, 256, 32, 18])];
            tensor<fp16, [1, 256, 32, 18]> input_29_cast_fp16 = reshape(shape = concat_34, x = g_19_cast_fp16)[name = string("input_29_cast_fp16")];
            string g_21_pad_type_0 = const()[name = string("g_21_pad_type_0"), val = string("valid")];
            tensor<int32, [2]> g_21_strides_0 = const()[name = string("g_21_strides_0"), val = tensor<int32, [2]>([1, 1])];
            tensor<int32, [4]> g_21_pad_0 = const()[name = string("g_21_pad_0"), val = tensor<int32, [4]>([0, 0, 0, 0])];
            tensor<int32, [2]> g_21_dilations_0 = const()[name = string("g_21_dilations_0"), val = tensor<int32, [2]>([1, 1])];
            int32 g_21_groups_0 = const()[name = string("g_21_groups_0"), val = int32(1)];
            tensor<fp16, [1, 256, 1, 1]> m_object_transformer_mask_pred_0_1_weight_to_fp16 = const()[name = string("m_object_transformer_mask_pred_0_1_weight_to_fp16"), val = tensor<fp16, [1, 256, 1, 1]>(BLOBFILE(path = string("@model_path/weights/weight.bin"), offset = uint64(5955200)))];
            tensor<fp16, [1]> m_object_transformer_mask_pred_0_1_bias_to_fp16 = const()[name = string("m_object_transformer_mask_pred_0_1_bias_to_fp16"), val = tensor<fp16, [1]>([0x1p-22])];
            tensor<fp16, [1, 1, 32, 18]> g_21_cast_fp16 = conv(bias = m_object_transformer_mask_pred_0_1_bias_to_fp16, dilations = g_21_dilations_0, groups = g_21_groups_0, pad = g_21_pad_0, pad_type = g_21_pad_type_0, strides = g_21_strides_0, weight = m_object_transformer_mask_pred_0_1_weight_to_fp16, x = input_29_cast_fp16)[name = string("g_21_cast_fp16")];
            tensor<int32, [5]> var_381 = const()[name = string("op_381"), val = tensor<int32, [5]>([1, 1, 1, 32, 18])];
            tensor<fp16, [1, 1, 1, 32, 18]> var_382_cast_fp16 = reshape(shape = var_381, x = g_21_cast_fp16)[name = string("op_382_cast_fp16")];
            tensor<int32, [1]> logits_1_axes_0 = const()[name = string("logits_1_axes_0"), val = tensor<int32, [1]>([2])];
            tensor<fp16, [1, 1, 32, 18]> logits_1_cast_fp16 = squeeze(axes = logits_1_axes_0, x = var_382_cast_fp16)[name = string("logits_1_cast_fp16")];
            tensor<fp16, [1, 1, 32, 18]> prob_1_cast_fp16 = sigmoid(x = logits_1_cast_fp16)[name = string("prob_1_cast_fp16")];
            fp16 var_209_promoted_to_fp16 = const()[name = string("op_209_promoted_to_fp16"), val = fp16(0x1p+0)];
            tensor<fp16, [1, 1, 32, 18]> var_386_cast_fp16 = sub(x = var_209_promoted_to_fp16, y = prob_1_cast_fp16)[name = string("op_386_cast_fp16")];
            tensor<int32, [1]> var_387_axes_0 = const()[name = string("op_387_axes_0"), val = tensor<int32, [1]>([1])];
            bool var_387_keep_dims_0 = const()[name = string("op_387_keep_dims_0"), val = bool(true)];
            tensor<fp16, [1, 1, 32, 18]> var_387_cast_fp16 = reduce_prod(axes = var_387_axes_0, keep_dims = var_387_keep_dims_0, x = var_386_cast_fp16)[name = string("op_387_cast_fp16")];
            bool var_389_interleave_0 = const()[name = string("op_389_interleave_0"), val = bool(false)];
            tensor<fp16, [1, 2, 32, 18]> var_389_cast_fp16 = concat(axis = var_209, interleave = var_389_interleave_0, values = (var_387_cast_fp16, prob_1_cast_fp16))[name = string("op_389_cast_fp16")];
            fp16 var_191_to_fp16 = const()[name = string("op_191_to_fp16"), val = fp16(0x1p-23)];
            fp16 var_190_to_fp16 = const()[name = string("op_190_to_fp16"), val = fp16(0x1p+0)];
            tensor<fp16, [1, 2, 32, 18]> clip_0_cast_fp16 = clip(alpha = var_191_to_fp16, beta = var_190_to_fp16, x = var_389_cast_fp16)[name = string("clip_0_cast_fp16")];
            fp16 var_209_promoted_1_to_fp16 = const()[name = string("op_209_promoted_1_to_fp16"), val = fp16(0x1p+0)];
            tensor<fp16, [1, 2, 32, 18]> var_391_cast_fp16 = sub(x = var_209_promoted_1_to_fp16, y = clip_0_cast_fp16)[name = string("op_391_cast_fp16")];
            tensor<fp16, [1, 2, 32, 18]> var_392_cast_fp16 = real_div(x = clip_0_cast_fp16, y = var_391_cast_fp16)[name = string("op_392_cast_fp16")];
            fp32 logits_3_epsilon_0 = const()[name = string("logits_3_epsilon_0"), val = fp32(0x1p-149)];
            tensor<fp16, [1, 2, 32, 18]> logits_3_cast_fp16 = log(epsilon = logits_3_epsilon_0, x = var_392_cast_fp16)[name = string("logits_3_cast_fp16")];
            tensor<int32, [4]> var_395_begin_0 = const()[name = string("op_395_begin_0"), val = tensor<int32, [4]>([0, 1, 0, 0])];
            tensor<int32, [4]> var_395_end_0 = const()[name = string("op_395_end_0"), val = tensor<int32, [4]>([1, 2, 32, 18])];
            tensor<bool, [4]> var_395_end_mask_0 = const()[name = string("op_395_end_mask_0"), val = tensor<bool, [4]>([true, true, true, true])];
            tensor<fp16, [1, 1, 32, 18]> var_395_cast_fp16 = slice_by_index(begin = var_395_begin_0, end = var_395_end_0, end_mask = var_395_end_mask_0, x = logits_3_cast_fp16)[name = string("op_395_cast_fp16")];
            tensor<int32, [1]> reduce_max_0_axes_0 = const()[name = string("reduce_max_0_axes_0"), val = tensor<int32, [1]>([1])];
            bool reduce_max_0_keep_dims_0 = const()[name = string("reduce_max_0_keep_dims_0"), val = bool(true)];
            tensor<fp16, [1, 1, 32, 18]> reduce_max_0_cast_fp16 = reduce_max(axes = reduce_max_0_axes_0, keep_dims = reduce_max_0_keep_dims_0, x = logits_3_cast_fp16)[name = string("reduce_max_0_cast_fp16")];
            tensor<bool, [1, 1, 32, 18]> is_foreground_1_cast_fp16 = greater_equal(x = var_395_cast_fp16, y = reduce_max_0_cast_fp16)[name = string("is_foreground_1_cast_fp16")];
            tensor<int32, [3]> concat_35 = const()[name = string("concat_35"), val = tensor<int32, [3]>([1, 1, 576])];
            tensor<bool, [1, 1, 576]> foreground_mask_1 = reshape(shape = concat_35, x = is_foreground_1_cast_fp16)[name = string("foreground_mask_1")];
            tensor<bool, [1, 1, 576]> inv_foreground_mask_1 = logical_not(x = foreground_mask_1)[name = string("inv_foreground_mask_1")];
            tensor<int32, [1]> var_402_axes_0 = const()[name = string("op_402_axes_0"), val = tensor<int32, [1]>([2])];
            tensor<bool, [1, 1, 1, 576]> var_402 = expand_dims(axes = var_402_axes_0, x = inv_foreground_mask_1)[name = string("op_402")];
            tensor<int32, [1]> var_403_axes_0 = const()[name = string("op_403_axes_0"), val = tensor<int32, [1]>([2])];
            tensor<bool, [1, 1, 1, 1, 576]> var_403 = expand_dims(axes = var_403_axes_0, x = var_402)[name = string("op_403")];
            tensor<int32, [5]> var_404 = const()[name = string("op_404"), val = tensor<int32, [5]>([1, 1, 8, 8, 1])];
            tensor<bool, [1, 1, 8, 8, 576]> var_405 = tile(reps = var_404, x = var_403)[name = string("op_405")];
            tensor<int32, [3]> concat_36 = const()[name = string("concat_36"), val = tensor<int32, [3]>([8, 8, 576])];
            tensor<bool, [8, 8, 576]> aux_foreground_mask_1 = reshape(shape = concat_36, x = var_405)[name = string("aux_foreground_mask_1")];
            tensor<int32, [1]> var_407_axes_0 = const()[name = string("op_407_axes_0"), val = tensor<int32, [1]>([2])];
            tensor<bool, [1, 1, 1, 576]> var_407 = expand_dims(axes = var_407_axes_0, x = foreground_mask_1)[name = string("op_407")];
            tensor<int32, [1]> var_408_axes_0 = const()[name = string("op_408_axes_0"), val = tensor<int32, [1]>([2])];
            tensor<bool, [1, 1, 1, 1, 576]> var_408 = expand_dims(axes = var_408_axes_0, x = var_407)[name = string("op_408")];
            tensor<int32, [5]> var_409 = const()[name = string("op_409"), val = tensor<int32, [5]>([1, 1, 8, 8, 1])];
            tensor<bool, [1, 1, 8, 8, 576]> var_410 = tile(reps = var_409, x = var_408)[name = string("op_410")];
            tensor<int32, [3]> concat_37 = const()[name = string("concat_37"), val = tensor<int32, [3]>([8, 8, 576])];
            tensor<bool, [8, 8, 576]> aux_background_mask_1 = reshape(shape = concat_37, x = var_410)[name = string("aux_background_mask_1")];
            bool aux_mask_1_interleave_0 = const()[name = string("aux_mask_1_interleave_0"), val = bool(false)];
            tensor<bool, [8, 16, 576]> aux_mask_1 = concat(axis = var_209, interleave = aux_mask_1_interleave_0, values = (aux_foreground_mask_1, aux_background_mask_1))[name = string("aux_mask_1")];
            tensor<int32, [1]> var_415_axes_0 = const()[name = string("op_415_axes_0"), val = tensor<int32, [1]>([-1])];
            bool var_415_keep_dims_0 = const()[name = string("op_415_keep_dims_0"), val = bool(true)];
            string cast_41_to_fp16_dtype_0 = const()[name = string("cast_41_to_fp16_dtype_0"), val = string("fp16")];
            tensor<fp16, [8, 16, 576]> aux_mask_1_to_fp16 = cast(dtype = cast_41_to_fp16_dtype_0, x = aux_mask_1)[name = string("cast_175")];
            tensor<fp16, [8, 16, 1]> var_415_cast_fp16 = reduce_sum(axes = var_415_axes_0, keep_dims = var_415_keep_dims_0, x = aux_mask_1_to_fp16)[name = string("op_415_cast_fp16")];
            tensor<fp16, [1]> var_417_promoted_to_fp16 = const()[name = string("op_417_promoted_to_fp16"), val = tensor<fp16, [1]>([0x1.2p+9])];
            tensor<bool, [8, 16, 1]> all_masked_1_cast_fp16 = equal(x = var_415_cast_fp16, y = var_417_promoted_to_fp16)[name = string("all_masked_1_cast_fp16")];
            tensor<bool, [8, 16, 1]> var_419 = logical_not(x = all_masked_1_cast_fp16)[name = string("op_419")];
            tensor<bool, [8, 16, 576]> mask_1 = logical_and(x = aux_mask_1, y = var_419)[name = string("mask_1")];
            tensor<int32, [3]> concat_39 = const()[name = string("concat_39"), val = tensor<int32, [3]>([1, 256, 576])];
            tensor<fp16, [1, 256, 576]> var_427_cast_fp16 = reshape(shape = concat_39, x = input_27_cast_fp16)[name = string("op_427_cast_fp16")];
            tensor<int32, [3]> var_428_perm_0 = const()[name = string("op_428_perm_0"), val = tensor<int32, [3]>([0, 2, 1])];
            tensor<int32, [1]> x_9_axes_0 = const()[name = string("x_9_axes_0"), val = tensor<int32, [1]>([-1])];
            tensor<fp16, [256]> m_object_transformer_blocks_0_read_from_pixel_norm_weight_to_fp16 = const()[name = string("m_object_transformer_blocks_0_read_from_pixel_norm_weight_to_fp16"), val = tensor<fp16, [256]>(BLOBFILE(path = string("@model_path/weights/weight.bin"), offset = uint64(5955776)))];
            tensor<fp16, [256]> m_object_transformer_blocks_0_read_from_pixel_norm_bias_to_fp16 = const()[name = string("m_object_transformer_blocks_0_read_from_pixel_norm_bias_to_fp16"), val = tensor<fp16, [256]>(BLOBFILE(path = string("@model_path/weights/weight.bin"), offset = uint64(5956352)))];
            fp16 var_187_to_fp16 = const()[name = string("op_187_to_fp16"), val = fp16(0x1.5p-17)];
            tensor<fp16, [1, 16, 256]> x_9_cast_fp16 = layer_norm(axes = x_9_axes_0, beta = m_object_transformer_blocks_0_read_from_pixel_norm_bias_to_fp16, epsilon = var_187_to_fp16, gamma = m_object_transformer_blocks_0_read_from_pixel_norm_weight_to_fp16, x = input_31_cast_fp16)[name = string("x_9_cast_fp16")];
            tensor<fp16, [1, 16, 256]> x_11_cast_fp16 = add(x = x_9_cast_fp16, y = x_pe_cast_fp16)[name = string("x_11_cast_fp16")];
            tensor<fp16, [1, 576, 256]> var_428_cast_fp16 = transpose(perm = var_428_perm_0, x = var_427_cast_fp16)[name = string("transpose_90")];
            tensor<fp16, [1, 576, 256]> x_13_cast_fp16 = add(x = var_428_cast_fp16, y = mem_pe_cast_fp16)[name = string("x_13_cast_fp16")];
            fp16 var_184_to_fp16 = const()[name = string("op_184_to_fp16"), val = fp16(-inf)];
            tensor<fp16, [8, 16, 576]> var_444_to_fp16 = const()[name = string("op_444_to_fp16"), val = tensor<fp16, [8, 16, 576]>(BLOBFILE(path = string("@model_path/weights/weight.bin"), offset = uint64(5956928)))];
            tensor<fp16, [8, 16, 576]> attn_mask_1_cast_fp16 = select(a = var_184_to_fp16, b = var_444_to_fp16, cond = mask_1)[name = string("attn_mask_1_cast_fp16")];
            tensor<int32, [3]> query_1_perm_0 = const()[name = string("query_1_perm_0"), val = tensor<int32, [3]>([1, 0, 2])];
            tensor<int32, [3]> key_1_perm_0 = const()[name = string("key_1_perm_0"), val = tensor<int32, [3]>([1, 0, 2])];
            tensor<int32, [3]> value_1_perm_0 = const()[name = string("value_1_perm_0"), val = tensor<int32, [3]>([1, 0, 2])];
            tensor<fp16, [256, 256]> var_462_0_to_fp16 = const()[name = string("op_462_0_to_fp16"), val = tensor<fp16, [256, 256]>(BLOBFILE(path = string("@model_path/weights/weight.bin"), offset = uint64(6104448)))];
            tensor<fp16, [256]> var_465_0_to_fp16 = const()[name = string("op_465_0_to_fp16"), val = tensor<fp16, [256]>(BLOBFILE(path = string("@model_path/weights/weight.bin"), offset = uint64(6235584)))];
            tensor<fp16, [16, 1, 256]> query_1_cast_fp16 = transpose(perm = query_1_perm_0, x = x_11_cast_fp16)[name = string("transpose_89")];
            tensor<fp16, [16, 1, 256]> linear_2_cast_fp16 = linear(bias = var_465_0_to_fp16, weight = var_462_0_to_fp16, x = query_1_cast_fp16)[name = string("linear_2_cast_fp16")];
            tensor<fp16, [256, 256]> var_462_1_to_fp16 = const()[name = string("op_462_1_to_fp16"), val = tensor<fp16, [256, 256]>(BLOBFILE(path = string("@model_path/weights/weight.bin"), offset = uint64(6236160)))];
            tensor<fp16, [256]> var_465_1_to_fp16 = const()[name = string("op_465_1_to_fp16"), val = tensor<fp16, [256]>(BLOBFILE(path = string("@model_path/weights/weight.bin"), offset = uint64(6367296)))];
            tensor<fp16, [576, 1, 256]> key_1_cast_fp16 = transpose(perm = key_1_perm_0, x = x_13_cast_fp16)[name = string("transpose_88")];
            tensor<fp16, [576, 1, 256]> linear_3_cast_fp16 = linear(bias = var_465_1_to_fp16, weight = var_462_1_to_fp16, x = key_1_cast_fp16)[name = string("linear_3_cast_fp16")];
            tensor<fp16, [256, 256]> var_462_2_to_fp16 = const()[name = string("op_462_2_to_fp16"), val = tensor<fp16, [256, 256]>(BLOBFILE(path = string("@model_path/weights/weight.bin"), offset = uint64(6367872)))];
            tensor<fp16, [256]> var_465_2_to_fp16 = const()[name = string("op_465_2_to_fp16"), val = tensor<fp16, [256]>(BLOBFILE(path = string("@model_path/weights/weight.bin"), offset = uint64(6499008)))];
            tensor<fp16, [576, 1, 256]> value_1_cast_fp16 = transpose(perm = value_1_perm_0, x = var_428_cast_fp16)[name = string("transpose_87")];
            tensor<fp16, [576, 1, 256]> linear_4_cast_fp16 = linear(bias = var_465_2_to_fp16, weight = var_462_2_to_fp16, x = value_1_cast_fp16)[name = string("linear_4_cast_fp16")];
            tensor<int32, [3]> var_474 = const()[name = string("op_474"), val = tensor<int32, [3]>([16, 8, 32])];
            tensor<fp16, [16, 8, 32]> var_475_cast_fp16 = reshape(shape = var_474, x = linear_2_cast_fp16)[name = string("op_475_cast_fp16")];
            tensor<int32, [3]> q_3_perm_0 = const()[name = string("q_3_perm_0"), val = tensor<int32, [3]>([1, 0, 2])];
            tensor<int32, [3]> var_481 = const()[name = string("op_481"), val = tensor<int32, [3]>([576, 8, 32])];
            tensor<fp16, [576, 8, 32]> var_482_cast_fp16 = reshape(shape = var_481, x = linear_3_cast_fp16)[name = string("op_482_cast_fp16")];
            tensor<int32, [3]> k_3_perm_0 = const()[name = string("k_3_perm_0"), val = tensor<int32, [3]>([1, 0, 2])];
            tensor<int32, [3]> var_488 = const()[name = string("op_488"), val = tensor<int32, [3]>([576, 8, 32])];
            tensor<fp16, [576, 8, 32]> var_489_cast_fp16 = reshape(shape = var_488, x = linear_4_cast_fp16)[name = string("op_489_cast_fp16")];
            tensor<int32, [3]> v_3_perm_0 = const()[name = string("v_3_perm_0"), val = tensor<int32, [3]>([1, 0, 2])];
            tensor<int32, [4]> var_492 = const()[name = string("op_492"), val = tensor<int32, [4]>([1, 8, -1, 576])];
            tensor<fp16, [1, 8, 16, 576]> attn_mask_3_cast_fp16 = reshape(shape = var_492, x = attn_mask_1_cast_fp16)[name = string("attn_mask_3_cast_fp16")];
            tensor<int32, [4]> var_494 = const()[name = string("op_494"), val = tensor<int32, [4]>([1, 8, 16, 32])];
            tensor<fp16, [8, 16, 32]> q_3_cast_fp16 = transpose(perm = q_3_perm_0, x = var_475_cast_fp16)[name = string("transpose_86")];
            tensor<fp16, [1, 8, 16, 32]> query_3_cast_fp16 = reshape(shape = var_494, x = q_3_cast_fp16)[name = string("query_3_cast_fp16")];
            tensor<int32, [4]> var_496 = const()[name = string("op_496"), val = tensor<int32, [4]>([1, 8, 576, 32])];
            tensor<fp16, [8, 576, 32]> k_3_cast_fp16 = transpose(perm = k_3_perm_0, x = var_482_cast_fp16)[name = string("transpose_85")];
            tensor<fp16, [1, 8, 576, 32]> key_3_cast_fp16 = reshape(shape = var_496, x = k_3_cast_fp16)[name = string("key_3_cast_fp16")];
            tensor<int32, [4]> var_498 = const()[name = string("op_498"), val = tensor<int32, [4]>([1, 8, 576, 32])];
            tensor<fp16, [8, 576, 32]> v_3_cast_fp16 = transpose(perm = v_3_perm_0, x = var_489_cast_fp16)[name = string("transpose_84")];
            tensor<fp16, [1, 8, 576, 32]> value_3_cast_fp16 = reshape(shape = var_498, x = v_3_cast_fp16)[name = string("value_3_cast_fp16")];
            bool var_501_transpose_x_1 = const()[name = string("op_501_transpose_x_1"), val = bool(false)];
            bool var_501_transpose_y_1 = const()[name = string("op_501_transpose_y_1"), val = bool(true)];
            tensor<fp16, [1, 8, 16, 576]> var_501_cast_fp16 = matmul(transpose_x = var_501_transpose_x_1, transpose_y = var_501_transpose_y_1, x = query_3_cast_fp16, y = key_3_cast_fp16)[name = string("op_501_cast_fp16")];
            fp16 var_502_to_fp16 = const()[name = string("op_502_to_fp16"), val = fp16(0x1.6ap-3)];
            tensor<fp16, [1, 8, 16, 576]> attn_1_cast_fp16 = mul(x = var_501_cast_fp16, y = var_502_to_fp16)[name = string("attn_1_cast_fp16")];
            tensor<fp16, [1, 8, 16, 576]> attn_3_cast_fp16 = add(x = attn_1_cast_fp16, y = attn_mask_3_cast_fp16)[name = string("attn_3_cast_fp16")];
            tensor<fp16, [1, 8, 16, 576]> attn_5_cast_fp16 = softmax(axis = var_201, x = attn_3_cast_fp16)[name = string("attn_5_cast_fp16")];
            bool attn_output_1_transpose_x_0 = const()[name = string("attn_output_1_transpose_x_0"), val = bool(false)];
            bool attn_output_1_transpose_y_0 = const()[name = string("attn_output_1_transpose_y_0"), val = bool(false)];
            tensor<fp16, [1, 8, 16, 32]> attn_output_1_cast_fp16 = matmul(transpose_x = attn_output_1_transpose_x_0, transpose_y = attn_output_1_transpose_y_0, x = attn_5_cast_fp16, y = value_3_cast_fp16)[name = string("attn_output_1_cast_fp16")];
            tensor<int32, [4]> var_507 = const()[name = string("op_507"), val = tensor<int32, [4]>([2, 0, 1, 3])];
            tensor<int32, [2]> var_512 = const()[name = string("op_512"), val = tensor<int32, [2]>([16, 256])];
            tensor<fp16, [16, 1, 8, 32]> var_508_cast_fp16 = transpose(perm = var_507, x = attn_output_1_cast_fp16)[name = string("transpose_83")];
            tensor<fp16, [16, 256]> attn_output_3_cast_fp16 = reshape(shape = var_512, x = var_508_cast_fp16)[name = string("attn_output_3_cast_fp16")];
            tensor<fp16, [256, 256]> m_object_transformer_blocks_0_read_from_pixel_cross_attn_out_proj_weight_to_fp16 = const()[name = string("m_object_transformer_blocks_0_read_from_pixel_cross_attn_out_proj_weight_to_fp16"), val = tensor<fp16, [256, 256]>(BLOBFILE(path = string("@model_path/weights/weight.bin"), offset = uint64(6499584)))];
            tensor<fp16, [256]> m_object_transformer_blocks_0_read_from_pixel_cross_attn_out_proj_bias_to_fp16 = const()[name = string("m_object_transformer_blocks_0_read_from_pixel_cross_attn_out_proj_bias_to_fp16"), val = tensor<fp16, [256]>(BLOBFILE(path = string("@model_path/weights/weight.bin"), offset = uint64(6630720)))];
            tensor<fp16, [16, 256]> linear_5_cast_fp16 = linear(bias = m_object_transformer_blocks_0_read_from_pixel_cross_attn_out_proj_bias_to_fp16, weight = m_object_transformer_blocks_0_read_from_pixel_cross_attn_out_proj_weight_to_fp16, x = attn_output_3_cast_fp16)[name = string("linear_5_cast_fp16")];
            tensor<int32, [3]> var_516 = const()[name = string("op_516"), val = tensor<int32, [3]>([16, 1, 256])];
            tensor<fp16, [16, 1, 256]> attn_output_7_cast_fp16 = reshape(shape = var_516, x = linear_5_cast_fp16)[name = string("attn_output_7_cast_fp16")];
            tensor<int32, [3]> input_33_perm_0 = const()[name = string("input_33_perm_0"), val = tensor<int32, [3]>([1, 0, 2])];
            tensor<fp16, [1, 16, 256]> input_33_cast_fp16 = transpose(perm = input_33_perm_0, x = attn_output_7_cast_fp16)[name = string("transpose_82")];
            tensor<fp16, [1, 16, 256]> input_35_cast_fp16 = add(x = x_9_cast_fp16, y = input_33_cast_fp16)[name = string("input_35_cast_fp16")];
            tensor<int32, [1]> x_17_axes_0 = const()[name = string("x_17_axes_0"), val = tensor<int32, [1]>([-1])];
            tensor<fp16, [256]> m_object_transformer_blocks_0_self_attn_norm_weight_to_fp16 = const()[name = string("m_object_transformer_blocks_0_self_attn_norm_weight_to_fp16"), val = tensor<fp16, [256]>(BLOBFILE(path = string("@model_path/weights/weight.bin"), offset = uint64(6631296)))];
            tensor<fp16, [256]> m_object_transformer_blocks_0_self_attn_norm_bias_to_fp16 = const()[name = string("m_object_transformer_blocks_0_self_attn_norm_bias_to_fp16"), val = tensor<fp16, [256]>(BLOBFILE(path = string("@model_path/weights/weight.bin"), offset = uint64(6631872)))];
            tensor<fp16, [1, 16, 256]> x_17_cast_fp16 = layer_norm(axes = x_17_axes_0, beta = m_object_transformer_blocks_0_self_attn_norm_bias_to_fp16, epsilon = var_187_to_fp16, gamma = m_object_transformer_blocks_0_self_attn_norm_weight_to_fp16, x = input_35_cast_fp16)[name = string("x_17_cast_fp16")];
            tensor<fp16, [1, 16, 256]> x_19_cast_fp16 = add(x = x_17_cast_fp16, y = x_pe_cast_fp16)[name = string("x_19_cast_fp16")];
            tensor<int32, [3]> query_5_perm_0 = const()[name = string("query_5_perm_0"), val = tensor<int32, [3]>([1, 0, 2])];
            tensor<int32, [3]> value_5_perm_0 = const()[name = string("value_5_perm_0"), val = tensor<int32, [3]>([1, 0, 2])];
            tensor<fp16, [256, 256]> var_547_0_to_fp16 = const()[name = string("op_547_0_to_fp16"), val = tensor<fp16, [256, 256]>(BLOBFILE(path = string("@model_path/weights/weight.bin"), offset = uint64(6632448)))];
            tensor<fp16, [256]> var_550_0_to_fp16 = const()[name = string("op_550_0_to_fp16"), val = tensor<fp16, [256]>(BLOBFILE(path = string("@model_path/weights/weight.bin"), offset = uint64(6763584)))];
            tensor<fp16, [16, 1, 256]> query_5_cast_fp16 = transpose(perm = query_5_perm_0, x = x_19_cast_fp16)[name = string("transpose_81")];
            tensor<fp16, [16, 1, 256]> linear_6_cast_fp16 = linear(bias = var_550_0_to_fp16, weight = var_547_0_to_fp16, x = query_5_cast_fp16)[name = string("linear_6_cast_fp16")];
            tensor<fp16, [256, 256]> var_547_1_to_fp16 = const()[name = string("op_547_1_to_fp16"), val = tensor<fp16, [256, 256]>(BLOBFILE(path = string("@model_path/weights/weight.bin"), offset = uint64(6764160)))];
            tensor<fp16, [256]> var_550_1_to_fp16 = const()[name = string("op_550_1_to_fp16"), val = tensor<fp16, [256]>(BLOBFILE(path = string("@model_path/weights/weight.bin"), offset = uint64(6895296)))];
            tensor<fp16, [16, 1, 256]> linear_7_cast_fp16 = linear(bias = var_550_1_to_fp16, weight = var_547_1_to_fp16, x = query_5_cast_fp16)[name = string("linear_7_cast_fp16")];
            tensor<fp16, [256, 256]> var_547_2_to_fp16 = const()[name = string("op_547_2_to_fp16"), val = tensor<fp16, [256, 256]>(BLOBFILE(path = string("@model_path/weights/weight.bin"), offset = uint64(6895872)))];
            tensor<fp16, [256]> var_550_2_to_fp16 = const()[name = string("op_550_2_to_fp16"), val = tensor<fp16, [256]>(BLOBFILE(path = string("@model_path/weights/weight.bin"), offset = uint64(7027008)))];
            tensor<fp16, [16, 1, 256]> value_5_cast_fp16 = transpose(perm = value_5_perm_0, x = x_17_cast_fp16)[name = string("transpose_80")];
            tensor<fp16, [16, 1, 256]> linear_8_cast_fp16 = linear(bias = var_550_2_to_fp16, weight = var_547_2_to_fp16, x = value_5_cast_fp16)[name = string("linear_8_cast_fp16")];
            tensor<int32, [3]> var_559 = const()[name = string("op_559"), val = tensor<int32, [3]>([16, 8, 32])];
            tensor<fp16, [16, 8, 32]> var_560_cast_fp16 = reshape(shape = var_559, x = linear_6_cast_fp16)[name = string("op_560_cast_fp16")];
            tensor<int32, [3]> var_566 = const()[name = string("op_566"), val = tensor<int32, [3]>([16, 8, 32])];
            tensor<fp16, [16, 8, 32]> var_567_cast_fp16 = reshape(shape = var_566, x = linear_7_cast_fp16)[name = string("op_567_cast_fp16")];
            tensor<int32, [3]> var_573 = const()[name = string("op_573"), val = tensor<int32, [3]>([16, 8, 32])];
            tensor<fp16, [16, 8, 32]> var_574_cast_fp16 = reshape(shape = var_573, x = linear_8_cast_fp16)[name = string("op_574_cast_fp16")];
            tensor<int32, [3]> v_7_perm_0 = const()[name = string("v_7_perm_0"), val = tensor<int32, [3]>([1, 0, 2])];
            fp16 _inversed_q_scaled_1_y_0_to_fp16 = const()[name = string("_inversed_q_scaled_1_y_0_to_fp16"), val = fp16(0x1.6ap-3)];
            tensor<fp16, [16, 8, 32]> _inversed_q_scaled_1_cast_fp16 = mul(x = var_560_cast_fp16, y = _inversed_q_scaled_1_y_0_to_fp16)[name = string("_inversed_q_scaled_1_cast_fp16")];
            bool input_37_transpose_x_0 = const()[name = string("input_37_transpose_x_0"), val = bool(false)];
            bool input_37_transpose_y_0 = const()[name = string("input_37_transpose_y_0"), val = bool(false)];
            tensor<int32, [3]> transpose_13_perm_0 = const()[name = string("transpose_13_perm_0"), val = tensor<int32, [3]>([1, -3, -1])];
            tensor<int32, [3]> transpose_14_perm_0 = const()[name = string("transpose_14_perm_0"), val = tensor<int32, [3]>([1, -1, -3])];
            tensor<fp16, [8, 32, 16]> transpose_14 = transpose(perm = transpose_14_perm_0, x = var_567_cast_fp16)[name = string("transpose_77")];
            tensor<fp16, [8, 16, 32]> transpose_13 = transpose(perm = transpose_13_perm_0, x = _inversed_q_scaled_1_cast_fp16)[name = string("transpose_78")];
            tensor<fp16, [8, 16, 16]> input_37_cast_fp16 = matmul(transpose_x = input_37_transpose_x_0, transpose_y = input_37_transpose_y_0, x = transpose_13, y = transpose_14)[name = string("input_37_cast_fp16")];
            tensor<fp16, [8, 16, 16]> attn_output_weights_1_cast_fp16 = softmax(axis = var_201, x = input_37_cast_fp16)[name = string("attn_output_weights_1_cast_fp16")];
            bool attn_output_9_transpose_x_0 = const()[name = string("attn_output_9_transpose_x_0"), val = bool(false)];
            bool attn_output_9_transpose_y_0 = const()[name = string("attn_output_9_transpose_y_0"), val = bool(false)];
            tensor<fp16, [8, 16, 32]> v_7_cast_fp16 = transpose(perm = v_7_perm_0, x = var_574_cast_fp16)[name = string("transpose_79")];
            tensor<fp16, [8, 16, 32]> attn_output_9_cast_fp16 = matmul(transpose_x = attn_output_9_transpose_x_0, transpose_y = attn_output_9_transpose_y_0, x = attn_output_weights_1_cast_fp16, y = v_7_cast_fp16)[name = string("attn_output_9_cast_fp16")];
            tensor<int32, [3]> var_582_perm_0 = const()[name = string("op_582_perm_0"), val = tensor<int32, [3]>([1, 0, 2])];
            tensor<int32, [2]> var_586 = const()[name = string("op_586"), val = tensor<int32, [2]>([16, 256])];
            tensor<fp16, [16, 8, 32]> var_582_cast_fp16 = transpose(perm = var_582_perm_0, x = attn_output_9_cast_fp16)[name = string("transpose_76")];
            tensor<fp16, [16, 256]> attn_output_11_cast_fp16 = reshape(shape = var_586, x = var_582_cast_fp16)[name = string("attn_output_11_cast_fp16")];
            tensor<fp16, [256, 256]> m_object_transformer_blocks_0_self_attn_self_attn_out_proj_weight_to_fp16 = const()[name = string("m_object_transformer_blocks_0_self_attn_self_attn_out_proj_weight_to_fp16"), val = tensor<fp16, [256, 256]>(BLOBFILE(path = string("@model_path/weights/weight.bin"), offset = uint64(7027584)))];
            tensor<fp16, [256]> m_object_transformer_blocks_0_self_attn_self_attn_out_proj_bias_to_fp16 = const()[name = string("m_object_transformer_blocks_0_self_attn_self_attn_out_proj_bias_to_fp16"), val = tensor<fp16, [256]>(BLOBFILE(path = string("@model_path/weights/weight.bin"), offset = uint64(7158720)))];
            tensor<fp16, [16, 256]> linear_9_cast_fp16 = linear(bias = m_object_transformer_blocks_0_self_attn_self_attn_out_proj_bias_to_fp16, weight = m_object_transformer_blocks_0_self_attn_self_attn_out_proj_weight_to_fp16, x = attn_output_11_cast_fp16)[name = string("linear_9_cast_fp16")];
            tensor<int32, [3]> var_590 = const()[name = string("op_590"), val = tensor<int32, [3]>([16, 1, 256])];
            tensor<fp16, [16, 1, 256]> attn_output_15_cast_fp16 = reshape(shape = var_590, x = linear_9_cast_fp16)[name = string("attn_output_15_cast_fp16")];
            tensor<int32, [3]> input_39_perm_0 = const()[name = string("input_39_perm_0"), val = tensor<int32, [3]>([1, 0, 2])];
            tensor<fp16, [1, 16, 256]> input_39_cast_fp16 = transpose(perm = input_39_perm_0, x = attn_output_15_cast_fp16)[name = string("transpose_75")];
            tensor<fp16, [1, 16, 256]> input_41_cast_fp16 = add(x = x_17_cast_fp16, y = input_39_cast_fp16)[name = string("input_41_cast_fp16")];
            tensor<int32, [1]> input_43_axes_0 = const()[name = string("input_43_axes_0"), val = tensor<int32, [1]>([-1])];
            tensor<fp16, [256]> m_object_transformer_blocks_0_ffn_norm_weight_to_fp16 = const()[name = string("m_object_transformer_blocks_0_ffn_norm_weight_to_fp16"), val = tensor<fp16, [256]>(BLOBFILE(path = string("@model_path/weights/weight.bin"), offset = uint64(7159296)))];
            tensor<fp16, [256]> m_object_transformer_blocks_0_ffn_norm_bias_to_fp16 = const()[name = string("m_object_transformer_blocks_0_ffn_norm_bias_to_fp16"), val = tensor<fp16, [256]>(BLOBFILE(path = string("@model_path/weights/weight.bin"), offset = uint64(7159872)))];
            tensor<fp16, [1, 16, 256]> input_43_cast_fp16 = layer_norm(axes = input_43_axes_0, beta = m_object_transformer_blocks_0_ffn_norm_bias_to_fp16, epsilon = var_187_to_fp16, gamma = m_object_transformer_blocks_0_ffn_norm_weight_to_fp16, x = input_41_cast_fp16)[name = string("input_43_cast_fp16")];
            tensor<fp16, [2048, 256]> m_object_transformer_blocks_0_ffn_linear1_weight_to_fp16 = const()[name = string("m_object_transformer_blocks_0_ffn_linear1_weight_to_fp16"), val = tensor<fp16, [2048, 256]>(BLOBFILE(path = string("@model_path/weights/weight.bin"), offset = uint64(7160448)))];
            tensor<fp16, [2048]> m_object_transformer_blocks_0_ffn_linear1_bias_to_fp16 = const()[name = string("m_object_transformer_blocks_0_ffn_linear1_bias_to_fp16"), val = tensor<fp16, [2048]>(BLOBFILE(path = string("@model_path/weights/weight.bin"), offset = uint64(8209088)))];
            tensor<fp16, [1, 16, 2048]> linear_10_cast_fp16 = linear(bias = m_object_transformer_blocks_0_ffn_linear1_bias_to_fp16, weight = m_object_transformer_blocks_0_ffn_linear1_weight_to_fp16, x = input_43_cast_fp16)[name = string("linear_10_cast_fp16")];
            tensor<fp16, [1, 16, 2048]> input_47_cast_fp16 = relu(x = linear_10_cast_fp16)[name = string("input_47_cast_fp16")];
            tensor<fp16, [256, 2048]> m_object_transformer_blocks_0_ffn_linear2_weight_to_fp16 = const()[name = string("m_object_transformer_blocks_0_ffn_linear2_weight_to_fp16"), val = tensor<fp16, [256, 2048]>(BLOBFILE(path = string("@model_path/weights/weight.bin"), offset = uint64(8213248)))];
            tensor<fp16, [256]> m_object_transformer_blocks_0_ffn_linear2_bias_to_fp16 = const()[name = string("m_object_transformer_blocks_0_ffn_linear2_bias_to_fp16"), val = tensor<fp16, [256]>(BLOBFILE(path = string("@model_path/weights/weight.bin"), offset = uint64(9261888)))];
            tensor<fp16, [1, 16, 256]> linear_11_cast_fp16 = linear(bias = m_object_transformer_blocks_0_ffn_linear2_bias_to_fp16, weight = m_object_transformer_blocks_0_ffn_linear2_weight_to_fp16, x = input_47_cast_fp16)[name = string("linear_11_cast_fp16")];
            tensor<fp16, [1, 16, 256]> mem_3_cast_fp16 = add(x = input_41_cast_fp16, y = linear_11_cast_fp16)[name = string("mem_3_cast_fp16")];
            tensor<fp16, [1, 16, 256]> x_27_cast_fp16 = add(x = mem_3_cast_fp16, y = x_pe_cast_fp16)[name = string("x_27_cast_fp16")];
            tensor<int32, [3]> key_7_perm_0 = const()[name = string("key_7_perm_0"), val = tensor<int32, [3]>([1, 0, 2])];
            tensor<int32, [3]> value_7_perm_0 = const()[name = string("value_7_perm_0"), val = tensor<int32, [3]>([1, 0, 2])];
            tensor<fp16, [256, 256]> var_635_0_to_fp16 = const()[name = string("op_635_0_to_fp16"), val = tensor<fp16, [256, 256]>(BLOBFILE(path = string("@model_path/weights/weight.bin"), offset = uint64(9262464)))];
            tensor<fp16, [256]> var_638_0_to_fp16 = const()[name = string("op_638_0_to_fp16"), val = tensor<fp16, [256]>(BLOBFILE(path = string("@model_path/weights/weight.bin"), offset = uint64(9393600)))];
            tensor<fp16, [576, 1, 256]> linear_12_cast_fp16 = linear(bias = var_638_0_to_fp16, weight = var_635_0_to_fp16, x = key_1_cast_fp16)[name = string("linear_12_cast_fp16")];
            tensor<fp16, [256, 256]> var_635_1_to_fp16 = const()[name = string("op_635_1_to_fp16"), val = tensor<fp16, [256, 256]>(BLOBFILE(path = string("@model_path/weights/weight.bin"), offset = uint64(9394176)))];
            tensor<fp16, [256]> var_638_1_to_fp16 = const()[name = string("op_638_1_to_fp16"), val = tensor<fp16, [256]>(BLOBFILE(path = string("@model_path/weights/weight.bin"), offset = uint64(9525312)))];
            tensor<fp16, [16, 1, 256]> key_7_cast_fp16 = transpose(perm = key_7_perm_0, x = x_27_cast_fp16)[name = string("transpose_74")];
            tensor<fp16, [16, 1, 256]> linear_13_cast_fp16 = linear(bias = var_638_1_to_fp16, weight = var_635_1_to_fp16, x = key_7_cast_fp16)[name = string("linear_13_cast_fp16")];
            tensor<fp16, [256, 256]> var_635_2_to_fp16 = const()[name = string("op_635_2_to_fp16"), val = tensor<fp16, [256, 256]>(BLOBFILE(path = string("@model_path/weights/weight.bin"), offset = uint64(9525888)))];
            tensor<fp16, [256]> var_638_2_to_fp16 = const()[name = string("op_638_2_to_fp16"), val = tensor<fp16, [256]>(BLOBFILE(path = string("@model_path/weights/weight.bin"), offset = uint64(9657024)))];
            tensor<fp16, [16, 1, 256]> value_7_cast_fp16 = transpose(perm = value_7_perm_0, x = mem_3_cast_fp16)[name = string("transpose_73")];
            tensor<fp16, [16, 1, 256]> linear_14_cast_fp16 = linear(bias = var_638_2_to_fp16, weight = var_635_2_to_fp16, x = value_7_cast_fp16)[name = string("linear_14_cast_fp16")];
            tensor<int32, [3]> var_647 = const()[name = string("op_647"), val = tensor<int32, [3]>([576, 8, 32])];
            tensor<fp16, [576, 8, 32]> var_648_cast_fp16 = reshape(shape = var_647, x = linear_12_cast_fp16)[name = string("op_648_cast_fp16")];
            tensor<int32, [3]> q_11_perm_0 = const()[name = string("q_11_perm_0"), val = tensor<int32, [3]>([1, 0, 2])];
            tensor<int32, [3]> var_654 = const()[name = string("op_654"), val = tensor<int32, [3]>([16, 8, 32])];
            tensor<fp16, [16, 8, 32]> var_655_cast_fp16 = reshape(shape = var_654, x = linear_13_cast_fp16)[name = string("op_655_cast_fp16")];
            tensor<int32, [3]> k_11_perm_0 = const()[name = string("k_11_perm_0"), val = tensor<int32, [3]>([1, 0, 2])];
            tensor<int32, [3]> var_661 = const()[name = string("op_661"), val = tensor<int32, [3]>([16, 8, 32])];
            tensor<fp16, [16, 8, 32]> var_662_cast_fp16 = reshape(shape = var_661, x = linear_14_cast_fp16)[name = string("op_662_cast_fp16")];
            tensor<int32, [3]> v_11_perm_0 = const()[name = string("v_11_perm_0"), val = tensor<int32, [3]>([1, 0, 2])];
            tensor<int32, [4]> var_665 = const()[name = string("op_665"), val = tensor<int32, [4]>([1, 8, 576, 32])];
            tensor<fp16, [8, 576, 32]> q_11_cast_fp16 = transpose(perm = q_11_perm_0, x = var_648_cast_fp16)[name = string("transpose_72")];
            tensor<fp16, [1, 8, 576, 32]> query_9_cast_fp16 = reshape(shape = var_665, x = q_11_cast_fp16)[name = string("query_9_cast_fp16")];
            tensor<int32, [4]> var_667 = const()[name = string("op_667"), val = tensor<int32, [4]>([1, 8, 16, 32])];
            tensor<fp16, [8, 16, 32]> k_11_cast_fp16 = transpose(perm = k_11_perm_0, x = var_655_cast_fp16)[name = string("transpose_71")];
            tensor<fp16, [1, 8, 16, 32]> key_9_cast_fp16 = reshape(shape = var_667, x = k_11_cast_fp16)[name = string("key_9_cast_fp16")];
            tensor<int32, [4]> var_669 = const()[name = string("op_669"), val = tensor<int32, [4]>([1, 8, 16, 32])];
            tensor<fp16, [8, 16, 32]> v_11_cast_fp16 = transpose(perm = v_11_perm_0, x = var_662_cast_fp16)[name = string("transpose_70")];
            tensor<fp16, [1, 8, 16, 32]> value_9_cast_fp16 = reshape(shape = var_669, x = v_11_cast_fp16)[name = string("value_9_cast_fp16")];
            bool var_672_transpose_x_1 = const()[name = string("op_672_transpose_x_1"), val = bool(false)];
            bool var_672_transpose_y_1 = const()[name = string("op_672_transpose_y_1"), val = bool(true)];
            tensor<fp16, [1, 8, 576, 16]> var_672_cast_fp16 = matmul(transpose_x = var_672_transpose_x_1, transpose_y = var_672_transpose_y_1, x = query_9_cast_fp16, y = key_9_cast_fp16)[name = string("op_672_cast_fp16")];
            fp16 var_673_to_fp16 = const()[name = string("op_673_to_fp16"), val = fp16(0x1.6ap-3)];
            tensor<fp16, [1, 8, 576, 16]> attn_7_cast_fp16 = mul(x = var_672_cast_fp16, y = var_673_to_fp16)[name = string("attn_7_cast_fp16")];
            tensor<fp16, [1, 8, 576, 16]> attn_9_cast_fp16 = softmax(axis = var_201, x = attn_7_cast_fp16)[name = string("attn_9_cast_fp16")];
            bool attn_output_17_transpose_x_0 = const()[name = string("attn_output_17_transpose_x_0"), val = bool(false)];
            bool attn_output_17_transpose_y_0 = const()[name = string("attn_output_17_transpose_y_0"), val = bool(false)];
            tensor<fp16, [1, 8, 576, 32]> attn_output_17_cast_fp16 = matmul(transpose_x = attn_output_17_transpose_x_0, transpose_y = attn_output_17_transpose_y_0, x = attn_9_cast_fp16, y = value_9_cast_fp16)[name = string("attn_output_17_cast_fp16")];
            tensor<int32, [4]> var_677 = const()[name = string("op_677"), val = tensor<int32, [4]>([2, 0, 1, 3])];
            tensor<int32, [2]> var_682 = const()[name = string("op_682"), val = tensor<int32, [2]>([576, 256])];
            tensor<fp16, [576, 1, 8, 32]> var_678_cast_fp16 = transpose(perm = var_677, x = attn_output_17_cast_fp16)[name = string("transpose_69")];
            tensor<fp16, [576, 256]> attn_output_19_cast_fp16 = reshape(shape = var_682, x = var_678_cast_fp16)[name = string("attn_output_19_cast_fp16")];
            tensor<fp16, [256, 256]> m_object_transformer_blocks_0_read_from_query_cross_attn_out_proj_weight_to_fp16 = const()[name = string("m_object_transformer_blocks_0_read_from_query_cross_attn_out_proj_weight_to_fp16"), val = tensor<fp16, [256, 256]>(BLOBFILE(path = string("@model_path/weights/weight.bin"), offset = uint64(9657600)))];
            tensor<fp16, [256]> m_object_transformer_blocks_0_read_from_query_cross_attn_out_proj_bias_to_fp16 = const()[name = string("m_object_transformer_blocks_0_read_from_query_cross_attn_out_proj_bias_to_fp16"), val = tensor<fp16, [256]>(BLOBFILE(path = string("@model_path/weights/weight.bin"), offset = uint64(9788736)))];
            tensor<fp16, [576, 256]> linear_15_cast_fp16 = linear(bias = m_object_transformer_blocks_0_read_from_query_cross_attn_out_proj_bias_to_fp16, weight = m_object_transformer_blocks_0_read_from_query_cross_attn_out_proj_weight_to_fp16, x = attn_output_19_cast_fp16)[name = string("linear_15_cast_fp16")];
            tensor<int32, [3]> var_686 = const()[name = string("op_686"), val = tensor<int32, [3]>([576, 1, 256])];
            tensor<fp16, [576, 1, 256]> attn_output_23_cast_fp16 = reshape(shape = var_686, x = linear_15_cast_fp16)[name = string("attn_output_23_cast_fp16")];
            tensor<int32, [3]> input_49_perm_0 = const()[name = string("input_49_perm_0"), val = tensor<int32, [3]>([1, 0, 2])];
            tensor<fp16, [1, 576, 256]> input_49_cast_fp16 = transpose(perm = input_49_perm_0, x = attn_output_23_cast_fp16)[name = string("transpose_68")];
            tensor<fp16, [1, 576, 256]> pixel_flat_1_cast_fp16 = add(x = var_428_cast_fp16, y = input_49_cast_fp16)[name = string("pixel_flat_1_cast_fp16")];
            tensor<int32, [4]> var_700 = const()[name = string("op_700"), val = tensor<int32, [4]>([1, 32, 18, 256])];
            tensor<fp16, [1, 32, 18, 256]> pixel_flat_3_cast_fp16 = reshape(shape = var_700, x = pixel_flat_1_cast_fp16)[name = string("pixel_flat_3_cast_fp16")];
            tensor<int32, [4]> var_702 = const()[name = string("op_702"), val = tensor<int32, [4]>([0, 3, 1, 2])];
            tensor<fp16, [1, 256, 32, 18]> var_703_cast_fp16 = transpose(perm = var_702, x = pixel_flat_3_cast_fp16)[name = string("transpose_67")];
            tensor<fp16, [1, 256, 32, 18]> input_53_cast_fp16 = relu(x = var_703_cast_fp16)[name = string("input_53_cast_fp16")];
            string input_55_pad_type_0 = const()[name = string("input_55_pad_type_0"), val = string("custom")];
            tensor<int32, [4]> input_55_pad_0 = const()[name = string("input_55_pad_0"), val = tensor<int32, [4]>([1, 1, 1, 1])];
            tensor<int32, [2]> input_55_strides_0 = const()[name = string("input_55_strides_0"), val = tensor<int32, [2]>([1, 1])];
            tensor<int32, [2]> input_55_dilations_0 = const()[name = string("input_55_dilations_0"), val = tensor<int32, [2]>([1, 1])];
            int32 input_55_groups_0 = const()[name = string("input_55_groups_0"), val = int32(1)];
            tensor<fp16, [256, 256, 3, 3]> m_object_transformer_blocks_0_pixel_ffn_conv_conv1_weight_to_fp16 = const()[name = string("m_object_transformer_blocks_0_pixel_ffn_conv_conv1_weight_to_fp16"), val = tensor<fp16, [256, 256, 3, 3]>(BLOBFILE(path = string("@model_path/weights/weight.bin"), offset = uint64(9789312)))];
            tensor<fp16, [256]> m_object_transformer_blocks_0_pixel_ffn_conv_conv1_bias_to_fp16 = const()[name = string("m_object_transformer_blocks_0_pixel_ffn_conv_conv1_bias_to_fp16"), val = tensor<fp16, [256]>(BLOBFILE(path = string("@model_path/weights/weight.bin"), offset = uint64(10969024)))];
            tensor<fp16, [1, 256, 32, 18]> input_55_cast_fp16 = conv(bias = m_object_transformer_blocks_0_pixel_ffn_conv_conv1_bias_to_fp16, dilations = input_55_dilations_0, groups = input_55_groups_0, pad = input_55_pad_0, pad_type = input_55_pad_type_0, strides = input_55_strides_0, weight = m_object_transformer_blocks_0_pixel_ffn_conv_conv1_weight_to_fp16, x = input_53_cast_fp16)[name = string("input_55_cast_fp16")];
            tensor<fp16, [1, 256, 32, 18]> input_57_cast_fp16 = relu(x = input_55_cast_fp16)[name = string("input_57_cast_fp16")];
            string x_31_pad_type_0 = const()[name = string("x_31_pad_type_0"), val = string("custom")];
            tensor<int32, [4]> x_31_pad_0 = const()[name = string("x_31_pad_0"), val = tensor<int32, [4]>([1, 1, 1, 1])];
            tensor<int32, [2]> x_31_strides_0 = const()[name = string("x_31_strides_0"), val = tensor<int32, [2]>([1, 1])];
            tensor<int32, [2]> x_31_dilations_0 = const()[name = string("x_31_dilations_0"), val = tensor<int32, [2]>([1, 1])];
            int32 x_31_groups_0 = const()[name = string("x_31_groups_0"), val = int32(1)];
            tensor<fp16, [256, 256, 3, 3]> m_object_transformer_blocks_0_pixel_ffn_conv_conv2_weight_to_fp16 = const()[name = string("m_object_transformer_blocks_0_pixel_ffn_conv_conv2_weight_to_fp16"), val = tensor<fp16, [256, 256, 3, 3]>(BLOBFILE(path = string("@model_path/weights/weight.bin"), offset = uint64(10969600)))];
            tensor<fp16, [256]> m_object_transformer_blocks_0_pixel_ffn_conv_conv2_bias_to_fp16 = const()[name = string("m_object_transformer_blocks_0_pixel_ffn_conv_conv2_bias_to_fp16"), val = tensor<fp16, [256]>(BLOBFILE(path = string("@model_path/weights/weight.bin"), offset = uint64(12149312)))];
            tensor<fp16, [1, 256, 32, 18]> x_31_cast_fp16 = conv(bias = m_object_transformer_blocks_0_pixel_ffn_conv_conv2_bias_to_fp16, dilations = x_31_dilations_0, groups = x_31_groups_0, pad = x_31_pad_0, pad_type = x_31_pad_type_0, strides = x_31_strides_0, weight = m_object_transformer_blocks_0_pixel_ffn_conv_conv2_weight_to_fp16, x = input_57_cast_fp16)[name = string("x_31_cast_fp16")];
            tensor<int32, [2]> w_27_axes_0 = const()[name = string("w_27_axes_0"), val = tensor<int32, [2]>([-2, -1])];
            bool w_27_keep_dims_0 = const()[name = string("w_27_keep_dims_0"), val = bool(true)];
            tensor<fp16, [1, 256, 1, 1]> w_27_cast_fp16 = reduce_mean(axes = w_27_axes_0, keep_dims = w_27_keep_dims_0, x = x_31_cast_fp16)[name = string("w_27_cast_fp16")];
            tensor<int32, [4]> var_729 = const()[name = string("op_729"), val = tensor<int32, [4]>([1, 1, 256, 1])];
            tensor<fp16, [1, 1, 256, 1]> w_29_cast_fp16 = reshape(shape = var_729, x = w_27_cast_fp16)[name = string("w_29_cast_fp16")];
            string w_31_pad_type_0 = const()[name = string("w_31_pad_type_0"), val = string("custom")];
            tensor<int32, [4]> w_31_pad_0 = const()[name = string("w_31_pad_0"), val = tensor<int32, [4]>([2, 2, 0, 0])];
            tensor<int32, [2]> w_31_strides_0 = const()[name = string("w_31_strides_0"), val = tensor<int32, [2]>([1, 1])];
            tensor<int32, [2]> w_31_dilations_0 = const()[name = string("w_31_dilations_0"), val = tensor<int32, [2]>([1, 1])];
            int32 w_31_groups_0 = const()[name = string("w_31_groups_0"), val = int32(1)];
            tensor<fp16, [1, 1, 5, 1]> k2_5_to_fp16 = const()[name = string("k2_5_to_fp16"), val = tensor<fp16, [1, 1, 5, 1]>([[[[0x1.a18p-2], [0x1.22cp-1], [0x1.1ecp-4], [0x1.18cp-4], [0x1.7c8p-7]]]])];
            tensor<fp16, [1, 1, 256, 1]> w_31_cast_fp16 = conv(dilations = w_31_dilations_0, groups = w_31_groups_0, pad = w_31_pad_0, pad_type = w_31_pad_type_0, strides = w_31_strides_0, weight = k2_5_to_fp16, x = w_29_cast_fp16)[name = string("w_31_cast_fp16")];
            tensor<int32, [4]> var_737 = const()[name = string("op_737"), val = tensor<int32, [4]>([1, 256, 1, 1])];
            tensor<fp16, [1, 256, 1, 1]> var_738_cast_fp16 = reshape(shape = var_737, x = w_31_cast_fp16)[name = string("op_738_cast_fp16")];
            tensor<fp16, [1, 256, 1, 1]> w_33_cast_fp16 = sigmoid(x = var_738_cast_fp16)[name = string("w_33_cast_fp16")];
            tensor<fp16, [1, 256, 32, 18]> var_740_cast_fp16 = mul(x = x_31_cast_fp16, y = w_33_cast_fp16)[name = string("op_740_cast_fp16")];
            tensor<fp16, [1, 256, 32, 18]> x_33_cast_fp16 = add(x = var_740_cast_fp16, y = var_703_cast_fp16)[name = string("x_33_cast_fp16")];
            tensor<int32, [5]> var_742 = const()[name = string("op_742"), val = tensor<int32, [5]>([1, 1, 256, 32, 18])];
            tensor<fp16, [1, 1, 256, 32, 18]> input_59_cast_fp16 = reshape(shape = var_742, x = x_33_cast_fp16)[name = string("input_59_cast_fp16")];
            tensor<fp16, [1, 1, 256, 32, 18]> g_23_cast_fp16 = relu(x = input_59_cast_fp16)[name = string("g_23_cast_fp16")];
            tensor<int32, [4]> concat_40 = const()[name = string("concat_40"), val = tensor<int32, [4]>([1, 256, 32, 18])];
            tensor<fp16, [1, 256, 32, 18]> input_61_cast_fp16 = reshape(shape = concat_40, x = g_23_cast_fp16)[name = string("input_61_cast_fp16")];
            string g_25_pad_type_0 = const()[name = string("g_25_pad_type_0"), val = string("valid")];
            tensor<int32, [2]> g_25_strides_0 = const()[name = string("g_25_strides_0"), val = tensor<int32, [2]>([1, 1])];
            tensor<int32, [4]> g_25_pad_0 = const()[name = string("g_25_pad_0"), val = tensor<int32, [4]>([0, 0, 0, 0])];
            tensor<int32, [2]> g_25_dilations_0 = const()[name = string("g_25_dilations_0"), val = tensor<int32, [2]>([1, 1])];
            int32 g_25_groups_0 = const()[name = string("g_25_groups_0"), val = int32(1)];
            tensor<fp16, [1, 256, 1, 1]> m_object_transformer_mask_pred_1_1_weight_to_fp16 = const()[name = string("m_object_transformer_mask_pred_1_1_weight_to_fp16"), val = tensor<fp16, [1, 256, 1, 1]>(BLOBFILE(path = string("@model_path/weights/weight.bin"), offset = uint64(12149888)))];
            tensor<fp16, [1]> m_object_transformer_mask_pred_1_1_bias_to_fp16 = const()[name = string("m_object_transformer_mask_pred_1_1_bias_to_fp16"), val = tensor<fp16, [1]>([0x1.2p-19])];
            tensor<fp16, [1, 1, 32, 18]> g_25_cast_fp16 = conv(bias = m_object_transformer_mask_pred_1_1_bias_to_fp16, dilations = g_25_dilations_0, groups = g_25_groups_0, pad = g_25_pad_0, pad_type = g_25_pad_type_0, strides = g_25_strides_0, weight = m_object_transformer_mask_pred_1_1_weight_to_fp16, x = input_61_cast_fp16)[name = string("g_25_cast_fp16")];
            tensor<int32, [5]> var_762 = const()[name = string("op_762"), val = tensor<int32, [5]>([1, 1, 1, 32, 18])];
            tensor<fp16, [1, 1, 1, 32, 18]> var_763_cast_fp16 = reshape(shape = var_762, x = g_25_cast_fp16)[name = string("op_763_cast_fp16")];
            tensor<int32, [1]> logits_5_axes_0 = const()[name = string("logits_5_axes_0"), val = tensor<int32, [1]>([2])];
            tensor<fp16, [1, 1, 32, 18]> logits_5_cast_fp16 = squeeze(axes = logits_5_axes_0, x = var_763_cast_fp16)[name = string("logits_5_cast_fp16")];
            tensor<fp16, [1, 1, 32, 18]> prob_5_cast_fp16 = sigmoid(x = logits_5_cast_fp16)[name = string("prob_5_cast_fp16")];
            fp16 var_209_promoted_2_to_fp16 = const()[name = string("op_209_promoted_2_to_fp16"), val = fp16(0x1p+0)];
            tensor<fp16, [1, 1, 32, 18]> var_767_cast_fp16 = sub(x = var_209_promoted_2_to_fp16, y = prob_5_cast_fp16)[name = string("op_767_cast_fp16")];
            tensor<int32, [1]> var_768_axes_0 = const()[name = string("op_768_axes_0"), val = tensor<int32, [1]>([1])];
            bool var_768_keep_dims_0 = const()[name = string("op_768_keep_dims_0"), val = bool(true)];
            tensor<fp16, [1, 1, 32, 18]> var_768_cast_fp16 = reduce_prod(axes = var_768_axes_0, keep_dims = var_768_keep_dims_0, x = var_767_cast_fp16)[name = string("op_768_cast_fp16")];
            bool var_770_interleave_0 = const()[name = string("op_770_interleave_0"), val = bool(false)];
            tensor<fp16, [1, 2, 32, 18]> var_770_cast_fp16 = concat(axis = var_209, interleave = var_770_interleave_0, values = (var_768_cast_fp16, prob_5_cast_fp16))[name = string("op_770_cast_fp16")];
            tensor<fp16, [1, 2, 32, 18]> clip_1_cast_fp16 = clip(alpha = var_191_to_fp16, beta = var_190_to_fp16, x = var_770_cast_fp16)[name = string("clip_1_cast_fp16")];
            fp16 var_209_promoted_3_to_fp16 = const()[name = string("op_209_promoted_3_to_fp16"), val = fp16(0x1p+0)];
            tensor<fp16, [1, 2, 32, 18]> var_772_cast_fp16 = sub(x = var_209_promoted_3_to_fp16, y = clip_1_cast_fp16)[name = string("op_772_cast_fp16")];
            tensor<fp16, [1, 2, 32, 18]> var_773_cast_fp16 = real_div(x = clip_1_cast_fp16, y = var_772_cast_fp16)[name = string("op_773_cast_fp16")];
            fp32 logits_7_epsilon_0 = const()[name = string("logits_7_epsilon_0"), val = fp32(0x1p-149)];
            tensor<fp16, [1, 2, 32, 18]> logits_7_cast_fp16 = log(epsilon = logits_7_epsilon_0, x = var_773_cast_fp16)[name = string("logits_7_cast_fp16")];
            tensor<int32, [4]> var_776_begin_0 = const()[name = string("op_776_begin_0"), val = tensor<int32, [4]>([0, 1, 0, 0])];
            tensor<int32, [4]> var_776_end_0 = const()[name = string("op_776_end_0"), val = tensor<int32, [4]>([1, 2, 32, 18])];
            tensor<bool, [4]> var_776_end_mask_0 = const()[name = string("op_776_end_mask_0"), val = tensor<bool, [4]>([true, true, true, true])];
            tensor<fp16, [1, 1, 32, 18]> var_776_cast_fp16 = slice_by_index(begin = var_776_begin_0, end = var_776_end_0, end_mask = var_776_end_mask_0, x = logits_7_cast_fp16)[name = string("op_776_cast_fp16")];
            tensor<int32, [1]> reduce_max_1_axes_0 = const()[name = string("reduce_max_1_axes_0"), val = tensor<int32, [1]>([1])];
            bool reduce_max_1_keep_dims_0 = const()[name = string("reduce_max_1_keep_dims_0"), val = bool(true)];
            tensor<fp16, [1, 1, 32, 18]> reduce_max_1_cast_fp16 = reduce_max(axes = reduce_max_1_axes_0, keep_dims = reduce_max_1_keep_dims_0, x = logits_7_cast_fp16)[name = string("reduce_max_1_cast_fp16")];
            tensor<bool, [1, 1, 32, 18]> is_foreground_5_cast_fp16 = greater_equal(x = var_776_cast_fp16, y = reduce_max_1_cast_fp16)[name = string("is_foreground_5_cast_fp16")];
            tensor<int32, [3]> concat_41 = const()[name = string("concat_41"), val = tensor<int32, [3]>([1, 1, 576])];
            tensor<bool, [1, 1, 576]> foreground_mask_3 = reshape(shape = concat_41, x = is_foreground_5_cast_fp16)[name = string("foreground_mask_3")];
            tensor<bool, [1, 1, 576]> inv_foreground_mask_3 = logical_not(x = foreground_mask_3)[name = string("inv_foreground_mask_3")];
            tensor<int32, [1]> var_783_axes_0 = const()[name = string("op_783_axes_0"), val = tensor<int32, [1]>([2])];
            tensor<bool, [1, 1, 1, 576]> var_783 = expand_dims(axes = var_783_axes_0, x = inv_foreground_mask_3)[name = string("op_783")];
            tensor<int32, [1]> var_784_axes_0 = const()[name = string("op_784_axes_0"), val = tensor<int32, [1]>([2])];
            tensor<bool, [1, 1, 1, 1, 576]> var_784 = expand_dims(axes = var_784_axes_0, x = var_783)[name = string("op_784")];
            tensor<int32, [5]> var_785 = const()[name = string("op_785"), val = tensor<int32, [5]>([1, 1, 8, 8, 1])];
            tensor<bool, [1, 1, 8, 8, 576]> var_786 = tile(reps = var_785, x = var_784)[name = string("op_786")];
            tensor<int32, [3]> concat_42 = const()[name = string("concat_42"), val = tensor<int32, [3]>([8, 8, 576])];
            tensor<bool, [8, 8, 576]> aux_foreground_mask_3 = reshape(shape = concat_42, x = var_786)[name = string("aux_foreground_mask_3")];
            tensor<int32, [1]> var_788_axes_0 = const()[name = string("op_788_axes_0"), val = tensor<int32, [1]>([2])];
            tensor<bool, [1, 1, 1, 576]> var_788 = expand_dims(axes = var_788_axes_0, x = foreground_mask_3)[name = string("op_788")];
            tensor<int32, [1]> var_789_axes_0 = const()[name = string("op_789_axes_0"), val = tensor<int32, [1]>([2])];
            tensor<bool, [1, 1, 1, 1, 576]> var_789 = expand_dims(axes = var_789_axes_0, x = var_788)[name = string("op_789")];
            tensor<int32, [5]> var_790 = const()[name = string("op_790"), val = tensor<int32, [5]>([1, 1, 8, 8, 1])];
            tensor<bool, [1, 1, 8, 8, 576]> var_791 = tile(reps = var_790, x = var_789)[name = string("op_791")];
            tensor<int32, [3]> concat_43 = const()[name = string("concat_43"), val = tensor<int32, [3]>([8, 8, 576])];
            tensor<bool, [8, 8, 576]> aux_background_mask_3 = reshape(shape = concat_43, x = var_791)[name = string("aux_background_mask_3")];
            bool aux_mask_3_interleave_0 = const()[name = string("aux_mask_3_interleave_0"), val = bool(false)];
            tensor<bool, [8, 16, 576]> aux_mask_3 = concat(axis = var_209, interleave = aux_mask_3_interleave_0, values = (aux_foreground_mask_3, aux_background_mask_3))[name = string("aux_mask_3")];
            tensor<int32, [1]> var_796_axes_0 = const()[name = string("op_796_axes_0"), val = tensor<int32, [1]>([-1])];
            bool var_796_keep_dims_0 = const()[name = string("op_796_keep_dims_0"), val = bool(true)];
            string cast_87_to_fp16_dtype_0 = const()[name = string("cast_87_to_fp16_dtype_0"), val = string("fp16")];
            tensor<fp16, [8, 16, 576]> aux_mask_3_to_fp16 = cast(dtype = cast_87_to_fp16_dtype_0, x = aux_mask_3)[name = string("cast_174")];
            tensor<fp16, [8, 16, 1]> var_796_cast_fp16 = reduce_sum(axes = var_796_axes_0, keep_dims = var_796_keep_dims_0, x = aux_mask_3_to_fp16)[name = string("op_796_cast_fp16")];
            tensor<fp16, [1]> var_798_promoted_to_fp16 = const()[name = string("op_798_promoted_to_fp16"), val = tensor<fp16, [1]>([0x1.2p+9])];
            tensor<bool, [8, 16, 1]> all_masked_3_cast_fp16 = equal(x = var_796_cast_fp16, y = var_798_promoted_to_fp16)[name = string("all_masked_3_cast_fp16")];
            tensor<bool, [8, 16, 1]> var_800 = logical_not(x = all_masked_3_cast_fp16)[name = string("op_800")];
            tensor<bool, [8, 16, 576]> mask_3 = logical_and(x = aux_mask_3, y = var_800)[name = string("mask_3")];
            tensor<int32, [3]> concat_45 = const()[name = string("concat_45"), val = tensor<int32, [3]>([1, 256, 576])];
            tensor<fp16, [1, 256, 576]> var_808_cast_fp16 = reshape(shape = concat_45, x = input_59_cast_fp16)[name = string("op_808_cast_fp16")];
            tensor<int32, [3]> var_809_perm_0 = const()[name = string("op_809_perm_0"), val = tensor<int32, [3]>([0, 2, 1])];
            tensor<int32, [1]> x_35_axes_0 = const()[name = string("x_35_axes_0"), val = tensor<int32, [1]>([-1])];
            tensor<fp16, [256]> m_object_transformer_blocks_1_read_from_pixel_norm_weight_to_fp16 = const()[name = string("m_object_transformer_blocks_1_read_from_pixel_norm_weight_to_fp16"), val = tensor<fp16, [256]>(BLOBFILE(path = string("@model_path/weights/weight.bin"), offset = uint64(12150464)))];
            tensor<fp16, [256]> m_object_transformer_blocks_1_read_from_pixel_norm_bias_to_fp16 = const()[name = string("m_object_transformer_blocks_1_read_from_pixel_norm_bias_to_fp16"), val = tensor<fp16, [256]>(BLOBFILE(path = string("@model_path/weights/weight.bin"), offset = uint64(12151040)))];
            tensor<fp16, [1, 16, 256]> x_35_cast_fp16 = layer_norm(axes = x_35_axes_0, beta = m_object_transformer_blocks_1_read_from_pixel_norm_bias_to_fp16, epsilon = var_187_to_fp16, gamma = m_object_transformer_blocks_1_read_from_pixel_norm_weight_to_fp16, x = mem_3_cast_fp16)[name = string("x_35_cast_fp16")];
            tensor<fp16, [1, 16, 256]> x_37_cast_fp16 = add(x = x_35_cast_fp16, y = x_pe_cast_fp16)[name = string("x_37_cast_fp16")];
            tensor<fp16, [1, 576, 256]> var_809_cast_fp16 = transpose(perm = var_809_perm_0, x = var_808_cast_fp16)[name = string("transpose_66")];
            tensor<fp16, [1, 576, 256]> x_39_cast_fp16 = add(x = var_809_cast_fp16, y = mem_pe_cast_fp16)[name = string("x_39_cast_fp16")];
            tensor<fp16, [8, 16, 576]> attn_mask_5_cast_fp16 = select(a = var_184_to_fp16, b = var_444_to_fp16, cond = mask_3)[name = string("attn_mask_5_cast_fp16")];
            tensor<int32, [3]> query_11_perm_0 = const()[name = string("query_11_perm_0"), val = tensor<int32, [3]>([1, 0, 2])];
            tensor<int32, [3]> key_11_perm_0 = const()[name = string("key_11_perm_0"), val = tensor<int32, [3]>([1, 0, 2])];
            tensor<int32, [3]> value_11_perm_0 = const()[name = string("value_11_perm_0"), val = tensor<int32, [3]>([1, 0, 2])];
            tensor<fp16, [256, 256]> var_843_0_to_fp16 = const()[name = string("op_843_0_to_fp16"), val = tensor<fp16, [256, 256]>(BLOBFILE(path = string("@model_path/weights/weight.bin"), offset = uint64(12151616)))];
            tensor<fp16, [256]> var_846_0_to_fp16 = const()[name = string("op_846_0_to_fp16"), val = tensor<fp16, [256]>(BLOBFILE(path = string("@model_path/weights/weight.bin"), offset = uint64(12282752)))];
            tensor<fp16, [16, 1, 256]> query_11_cast_fp16 = transpose(perm = query_11_perm_0, x = x_37_cast_fp16)[name = string("transpose_65")];
            tensor<fp16, [16, 1, 256]> linear_16_cast_fp16 = linear(bias = var_846_0_to_fp16, weight = var_843_0_to_fp16, x = query_11_cast_fp16)[name = string("linear_16_cast_fp16")];
            tensor<fp16, [256, 256]> var_843_1_to_fp16 = const()[name = string("op_843_1_to_fp16"), val = tensor<fp16, [256, 256]>(BLOBFILE(path = string("@model_path/weights/weight.bin"), offset = uint64(12283328)))];
            tensor<fp16, [256]> var_846_1_to_fp16 = const()[name = string("op_846_1_to_fp16"), val = tensor<fp16, [256]>(BLOBFILE(path = string("@model_path/weights/weight.bin"), offset = uint64(12414464)))];
            tensor<fp16, [576, 1, 256]> key_11_cast_fp16 = transpose(perm = key_11_perm_0, x = x_39_cast_fp16)[name = string("transpose_64")];
            tensor<fp16, [576, 1, 256]> linear_17_cast_fp16 = linear(bias = var_846_1_to_fp16, weight = var_843_1_to_fp16, x = key_11_cast_fp16)[name = string("linear_17_cast_fp16")];
            tensor<fp16, [256, 256]> var_843_2_to_fp16 = const()[name = string("op_843_2_to_fp16"), val = tensor<fp16, [256, 256]>(BLOBFILE(path = string("@model_path/weights/weight.bin"), offset = uint64(12415040)))];
            tensor<fp16, [256]> var_846_2_to_fp16 = const()[name = string("op_846_2_to_fp16"), val = tensor<fp16, [256]>(BLOBFILE(path = string("@model_path/weights/weight.bin"), offset = uint64(12546176)))];
            tensor<fp16, [576, 1, 256]> value_11_cast_fp16 = transpose(perm = value_11_perm_0, x = var_809_cast_fp16)[name = string("transpose_63")];
            tensor<fp16, [576, 1, 256]> linear_18_cast_fp16 = linear(bias = var_846_2_to_fp16, weight = var_843_2_to_fp16, x = value_11_cast_fp16)[name = string("linear_18_cast_fp16")];
            tensor<int32, [3]> var_855 = const()[name = string("op_855"), val = tensor<int32, [3]>([16, 8, 32])];
            tensor<fp16, [16, 8, 32]> var_856_cast_fp16 = reshape(shape = var_855, x = linear_16_cast_fp16)[name = string("op_856_cast_fp16")];
            tensor<int32, [3]> q_15_perm_0 = const()[name = string("q_15_perm_0"), val = tensor<int32, [3]>([1, 0, 2])];
            tensor<int32, [3]> var_862 = const()[name = string("op_862"), val = tensor<int32, [3]>([576, 8, 32])];
            tensor<fp16, [576, 8, 32]> var_863_cast_fp16 = reshape(shape = var_862, x = linear_17_cast_fp16)[name = string("op_863_cast_fp16")];
            tensor<int32, [3]> k_15_perm_0 = const()[name = string("k_15_perm_0"), val = tensor<int32, [3]>([1, 0, 2])];
            tensor<int32, [3]> var_869 = const()[name = string("op_869"), val = tensor<int32, [3]>([576, 8, 32])];
            tensor<fp16, [576, 8, 32]> var_870_cast_fp16 = reshape(shape = var_869, x = linear_18_cast_fp16)[name = string("op_870_cast_fp16")];
            tensor<int32, [3]> v_15_perm_0 = const()[name = string("v_15_perm_0"), val = tensor<int32, [3]>([1, 0, 2])];
            tensor<int32, [4]> var_873 = const()[name = string("op_873"), val = tensor<int32, [4]>([1, 8, -1, 576])];
            tensor<fp16, [1, 8, 16, 576]> attn_mask_7_cast_fp16 = reshape(shape = var_873, x = attn_mask_5_cast_fp16)[name = string("attn_mask_7_cast_fp16")];
            tensor<int32, [4]> var_875 = const()[name = string("op_875"), val = tensor<int32, [4]>([1, 8, 16, 32])];
            tensor<fp16, [8, 16, 32]> q_15_cast_fp16 = transpose(perm = q_15_perm_0, x = var_856_cast_fp16)[name = string("transpose_62")];
            tensor<fp16, [1, 8, 16, 32]> query_13_cast_fp16 = reshape(shape = var_875, x = q_15_cast_fp16)[name = string("query_13_cast_fp16")];
            tensor<int32, [4]> var_877 = const()[name = string("op_877"), val = tensor<int32, [4]>([1, 8, 576, 32])];
            tensor<fp16, [8, 576, 32]> k_15_cast_fp16 = transpose(perm = k_15_perm_0, x = var_863_cast_fp16)[name = string("transpose_61")];
            tensor<fp16, [1, 8, 576, 32]> key_13_cast_fp16 = reshape(shape = var_877, x = k_15_cast_fp16)[name = string("key_13_cast_fp16")];
            tensor<int32, [4]> var_879 = const()[name = string("op_879"), val = tensor<int32, [4]>([1, 8, 576, 32])];
            tensor<fp16, [8, 576, 32]> v_15_cast_fp16 = transpose(perm = v_15_perm_0, x = var_870_cast_fp16)[name = string("transpose_60")];
            tensor<fp16, [1, 8, 576, 32]> value_13_cast_fp16 = reshape(shape = var_879, x = v_15_cast_fp16)[name = string("value_13_cast_fp16")];
            bool var_882_transpose_x_1 = const()[name = string("op_882_transpose_x_1"), val = bool(false)];
            bool var_882_transpose_y_1 = const()[name = string("op_882_transpose_y_1"), val = bool(true)];
            tensor<fp16, [1, 8, 16, 576]> var_882_cast_fp16 = matmul(transpose_x = var_882_transpose_x_1, transpose_y = var_882_transpose_y_1, x = query_13_cast_fp16, y = key_13_cast_fp16)[name = string("op_882_cast_fp16")];
            fp16 var_883_to_fp16 = const()[name = string("op_883_to_fp16"), val = fp16(0x1.6ap-3)];
            tensor<fp16, [1, 8, 16, 576]> attn_11_cast_fp16 = mul(x = var_882_cast_fp16, y = var_883_to_fp16)[name = string("attn_11_cast_fp16")];
            tensor<fp16, [1, 8, 16, 576]> attn_13_cast_fp16 = add(x = attn_11_cast_fp16, y = attn_mask_7_cast_fp16)[name = string("attn_13_cast_fp16")];
            tensor<fp16, [1, 8, 16, 576]> attn_15_cast_fp16 = softmax(axis = var_201, x = attn_13_cast_fp16)[name = string("attn_15_cast_fp16")];
            bool attn_output_25_transpose_x_0 = const()[name = string("attn_output_25_transpose_x_0"), val = bool(false)];
            bool attn_output_25_transpose_y_0 = const()[name = string("attn_output_25_transpose_y_0"), val = bool(false)];
            tensor<fp16, [1, 8, 16, 32]> attn_output_25_cast_fp16 = matmul(transpose_x = attn_output_25_transpose_x_0, transpose_y = attn_output_25_transpose_y_0, x = attn_15_cast_fp16, y = value_13_cast_fp16)[name = string("attn_output_25_cast_fp16")];
            tensor<int32, [4]> var_888 = const()[name = string("op_888"), val = tensor<int32, [4]>([2, 0, 1, 3])];
            tensor<int32, [2]> var_893 = const()[name = string("op_893"), val = tensor<int32, [2]>([16, 256])];
            tensor<fp16, [16, 1, 8, 32]> var_889_cast_fp16 = transpose(perm = var_888, x = attn_output_25_cast_fp16)[name = string("transpose_59")];
            tensor<fp16, [16, 256]> attn_output_27_cast_fp16 = reshape(shape = var_893, x = var_889_cast_fp16)[name = string("attn_output_27_cast_fp16")];
            tensor<fp16, [256, 256]> m_object_transformer_blocks_1_read_from_pixel_cross_attn_out_proj_weight_to_fp16 = const()[name = string("m_object_transformer_blocks_1_read_from_pixel_cross_attn_out_proj_weight_to_fp16"), val = tensor<fp16, [256, 256]>(BLOBFILE(path = string("@model_path/weights/weight.bin"), offset = uint64(12546752)))];
            tensor<fp16, [256]> m_object_transformer_blocks_1_read_from_pixel_cross_attn_out_proj_bias_to_fp16 = const()[name = string("m_object_transformer_blocks_1_read_from_pixel_cross_attn_out_proj_bias_to_fp16"), val = tensor<fp16, [256]>(BLOBFILE(path = string("@model_path/weights/weight.bin"), offset = uint64(12677888)))];
            tensor<fp16, [16, 256]> linear_19_cast_fp16 = linear(bias = m_object_transformer_blocks_1_read_from_pixel_cross_attn_out_proj_bias_to_fp16, weight = m_object_transformer_blocks_1_read_from_pixel_cross_attn_out_proj_weight_to_fp16, x = attn_output_27_cast_fp16)[name = string("linear_19_cast_fp16")];
            tensor<int32, [3]> var_897 = const()[name = string("op_897"), val = tensor<int32, [3]>([16, 1, 256])];
            tensor<fp16, [16, 1, 256]> attn_output_31_cast_fp16 = reshape(shape = var_897, x = linear_19_cast_fp16)[name = string("attn_output_31_cast_fp16")];
            tensor<int32, [3]> input_63_perm_0 = const()[name = string("input_63_perm_0"), val = tensor<int32, [3]>([1, 0, 2])];
            tensor<fp16, [1, 16, 256]> input_63_cast_fp16 = transpose(perm = input_63_perm_0, x = attn_output_31_cast_fp16)[name = string("transpose_58")];
            tensor<fp16, [1, 16, 256]> input_65_cast_fp16 = add(x = x_35_cast_fp16, y = input_63_cast_fp16)[name = string("input_65_cast_fp16")];
            tensor<int32, [1]> x_43_axes_0 = const()[name = string("x_43_axes_0"), val = tensor<int32, [1]>([-1])];
            tensor<fp16, [256]> m_object_transformer_blocks_1_self_attn_norm_weight_to_fp16 = const()[name = string("m_object_transformer_blocks_1_self_attn_norm_weight_to_fp16"), val = tensor<fp16, [256]>(BLOBFILE(path = string("@model_path/weights/weight.bin"), offset = uint64(12678464)))];
            tensor<fp16, [256]> m_object_transformer_blocks_1_self_attn_norm_bias_to_fp16 = const()[name = string("m_object_transformer_blocks_1_self_attn_norm_bias_to_fp16"), val = tensor<fp16, [256]>(BLOBFILE(path = string("@model_path/weights/weight.bin"), offset = uint64(12679040)))];
            tensor<fp16, [1, 16, 256]> x_43_cast_fp16 = layer_norm(axes = x_43_axes_0, beta = m_object_transformer_blocks_1_self_attn_norm_bias_to_fp16, epsilon = var_187_to_fp16, gamma = m_object_transformer_blocks_1_self_attn_norm_weight_to_fp16, x = input_65_cast_fp16)[name = string("x_43_cast_fp16")];
            tensor<fp16, [1, 16, 256]> x_45_cast_fp16 = add(x = x_43_cast_fp16, y = x_pe_cast_fp16)[name = string("x_45_cast_fp16")];
            tensor<int32, [3]> query_15_perm_0 = const()[name = string("query_15_perm_0"), val = tensor<int32, [3]>([1, 0, 2])];
            tensor<int32, [3]> value_15_perm_0 = const()[name = string("value_15_perm_0"), val = tensor<int32, [3]>([1, 0, 2])];
            tensor<fp16, [256, 256]> var_928_0_to_fp16 = const()[name = string("op_928_0_to_fp16"), val = tensor<fp16, [256, 256]>(BLOBFILE(path = string("@model_path/weights/weight.bin"), offset = uint64(12679616)))];
            tensor<fp16, [256]> var_931_0_to_fp16 = const()[name = string("op_931_0_to_fp16"), val = tensor<fp16, [256]>(BLOBFILE(path = string("@model_path/weights/weight.bin"), offset = uint64(12810752)))];
            tensor<fp16, [16, 1, 256]> query_15_cast_fp16 = transpose(perm = query_15_perm_0, x = x_45_cast_fp16)[name = string("transpose_57")];
            tensor<fp16, [16, 1, 256]> linear_20_cast_fp16 = linear(bias = var_931_0_to_fp16, weight = var_928_0_to_fp16, x = query_15_cast_fp16)[name = string("linear_20_cast_fp16")];
            tensor<fp16, [256, 256]> var_928_1_to_fp16 = const()[name = string("op_928_1_to_fp16"), val = tensor<fp16, [256, 256]>(BLOBFILE(path = string("@model_path/weights/weight.bin"), offset = uint64(12811328)))];
            tensor<fp16, [256]> var_931_1_to_fp16 = const()[name = string("op_931_1_to_fp16"), val = tensor<fp16, [256]>(BLOBFILE(path = string("@model_path/weights/weight.bin"), offset = uint64(12942464)))];
            tensor<fp16, [16, 1, 256]> linear_21_cast_fp16 = linear(bias = var_931_1_to_fp16, weight = var_928_1_to_fp16, x = query_15_cast_fp16)[name = string("linear_21_cast_fp16")];
            tensor<fp16, [256, 256]> var_928_2_to_fp16 = const()[name = string("op_928_2_to_fp16"), val = tensor<fp16, [256, 256]>(BLOBFILE(path = string("@model_path/weights/weight.bin"), offset = uint64(12943040)))];
            tensor<fp16, [256]> var_931_2_to_fp16 = const()[name = string("op_931_2_to_fp16"), val = tensor<fp16, [256]>(BLOBFILE(path = string("@model_path/weights/weight.bin"), offset = uint64(13074176)))];
            tensor<fp16, [16, 1, 256]> value_15_cast_fp16 = transpose(perm = value_15_perm_0, x = x_43_cast_fp16)[name = string("transpose_56")];
            tensor<fp16, [16, 1, 256]> linear_22_cast_fp16 = linear(bias = var_931_2_to_fp16, weight = var_928_2_to_fp16, x = value_15_cast_fp16)[name = string("linear_22_cast_fp16")];
            tensor<int32, [3]> var_940 = const()[name = string("op_940"), val = tensor<int32, [3]>([16, 8, 32])];
            tensor<fp16, [16, 8, 32]> var_941_cast_fp16 = reshape(shape = var_940, x = linear_20_cast_fp16)[name = string("op_941_cast_fp16")];
            tensor<int32, [3]> var_947 = const()[name = string("op_947"), val = tensor<int32, [3]>([16, 8, 32])];
            tensor<fp16, [16, 8, 32]> var_948_cast_fp16 = reshape(shape = var_947, x = linear_21_cast_fp16)[name = string("op_948_cast_fp16")];
            tensor<int32, [3]> var_954 = const()[name = string("op_954"), val = tensor<int32, [3]>([16, 8, 32])];
            tensor<fp16, [16, 8, 32]> var_955_cast_fp16 = reshape(shape = var_954, x = linear_22_cast_fp16)[name = string("op_955_cast_fp16")];
            tensor<int32, [3]> v_19_perm_0 = const()[name = string("v_19_perm_0"), val = tensor<int32, [3]>([1, 0, 2])];
            fp16 _inversed_q_scaled_3_y_0_to_fp16 = const()[name = string("_inversed_q_scaled_3_y_0_to_fp16"), val = fp16(0x1.6ap-3)];
            tensor<fp16, [16, 8, 32]> _inversed_q_scaled_3_cast_fp16 = mul(x = var_941_cast_fp16, y = _inversed_q_scaled_3_y_0_to_fp16)[name = string("_inversed_q_scaled_3_cast_fp16")];
            bool input_67_transpose_x_0 = const()[name = string("input_67_transpose_x_0"), val = bool(false)];
            bool input_67_transpose_y_0 = const()[name = string("input_67_transpose_y_0"), val = bool(false)];
            tensor<int32, [3]> transpose_15_perm_0 = const()[name = string("transpose_15_perm_0"), val = tensor<int32, [3]>([1, -3, -1])];
            tensor<int32, [3]> transpose_16_perm_0 = const()[name = string("transpose_16_perm_0"), val = tensor<int32, [3]>([1, -1, -3])];
            tensor<fp16, [8, 32, 16]> transpose_16 = transpose(perm = transpose_16_perm_0, x = var_948_cast_fp16)[name = string("transpose_53")];
            tensor<fp16, [8, 16, 32]> transpose_15 = transpose(perm = transpose_15_perm_0, x = _inversed_q_scaled_3_cast_fp16)[name = string("transpose_54")];
            tensor<fp16, [8, 16, 16]> input_67_cast_fp16 = matmul(transpose_x = input_67_transpose_x_0, transpose_y = input_67_transpose_y_0, x = transpose_15, y = transpose_16)[name = string("input_67_cast_fp16")];
            tensor<fp16, [8, 16, 16]> attn_output_weights_5_cast_fp16 = softmax(axis = var_201, x = input_67_cast_fp16)[name = string("attn_output_weights_5_cast_fp16")];
            bool attn_output_33_transpose_x_0 = const()[name = string("attn_output_33_transpose_x_0"), val = bool(false)];
            bool attn_output_33_transpose_y_0 = const()[name = string("attn_output_33_transpose_y_0"), val = bool(false)];
            tensor<fp16, [8, 16, 32]> v_19_cast_fp16 = transpose(perm = v_19_perm_0, x = var_955_cast_fp16)[name = string("transpose_55")];
            tensor<fp16, [8, 16, 32]> attn_output_33_cast_fp16 = matmul(transpose_x = attn_output_33_transpose_x_0, transpose_y = attn_output_33_transpose_y_0, x = attn_output_weights_5_cast_fp16, y = v_19_cast_fp16)[name = string("attn_output_33_cast_fp16")];
            tensor<int32, [3]> var_963_perm_0 = const()[name = string("op_963_perm_0"), val = tensor<int32, [3]>([1, 0, 2])];
            tensor<int32, [2]> var_967 = const()[name = string("op_967"), val = tensor<int32, [2]>([16, 256])];
            tensor<fp16, [16, 8, 32]> var_963_cast_fp16 = transpose(perm = var_963_perm_0, x = attn_output_33_cast_fp16)[name = string("transpose_52")];
            tensor<fp16, [16, 256]> attn_output_35_cast_fp16 = reshape(shape = var_967, x = var_963_cast_fp16)[name = string("attn_output_35_cast_fp16")];
            tensor<fp16, [256, 256]> m_object_transformer_blocks_1_self_attn_self_attn_out_proj_weight_to_fp16 = const()[name = string("m_object_transformer_blocks_1_self_attn_self_attn_out_proj_weight_to_fp16"), val = tensor<fp16, [256, 256]>(BLOBFILE(path = string("@model_path/weights/weight.bin"), offset = uint64(13074752)))];
            tensor<fp16, [256]> m_object_transformer_blocks_1_self_attn_self_attn_out_proj_bias_to_fp16 = const()[name = string("m_object_transformer_blocks_1_self_attn_self_attn_out_proj_bias_to_fp16"), val = tensor<fp16, [256]>(BLOBFILE(path = string("@model_path/weights/weight.bin"), offset = uint64(13205888)))];
            tensor<fp16, [16, 256]> linear_23_cast_fp16 = linear(bias = m_object_transformer_blocks_1_self_attn_self_attn_out_proj_bias_to_fp16, weight = m_object_transformer_blocks_1_self_attn_self_attn_out_proj_weight_to_fp16, x = attn_output_35_cast_fp16)[name = string("linear_23_cast_fp16")];
            tensor<int32, [3]> var_971 = const()[name = string("op_971"), val = tensor<int32, [3]>([16, 1, 256])];
            tensor<fp16, [16, 1, 256]> attn_output_39_cast_fp16 = reshape(shape = var_971, x = linear_23_cast_fp16)[name = string("attn_output_39_cast_fp16")];
            tensor<int32, [3]> input_69_perm_0 = const()[name = string("input_69_perm_0"), val = tensor<int32, [3]>([1, 0, 2])];
            tensor<fp16, [1, 16, 256]> input_69_cast_fp16 = transpose(perm = input_69_perm_0, x = attn_output_39_cast_fp16)[name = string("transpose_51")];
            tensor<fp16, [1, 16, 256]> input_71_cast_fp16 = add(x = x_43_cast_fp16, y = input_69_cast_fp16)[name = string("input_71_cast_fp16")];
            tensor<int32, [1]> input_73_axes_0 = const()[name = string("input_73_axes_0"), val = tensor<int32, [1]>([-1])];
            tensor<fp16, [256]> m_object_transformer_blocks_1_ffn_norm_weight_to_fp16 = const()[name = string("m_object_transformer_blocks_1_ffn_norm_weight_to_fp16"), val = tensor<fp16, [256]>(BLOBFILE(path = string("@model_path/weights/weight.bin"), offset = uint64(13206464)))];
            tensor<fp16, [256]> m_object_transformer_blocks_1_ffn_norm_bias_to_fp16 = const()[name = string("m_object_transformer_blocks_1_ffn_norm_bias_to_fp16"), val = tensor<fp16, [256]>(BLOBFILE(path = string("@model_path/weights/weight.bin"), offset = uint64(13207040)))];
            tensor<fp16, [1, 16, 256]> input_73_cast_fp16 = layer_norm(axes = input_73_axes_0, beta = m_object_transformer_blocks_1_ffn_norm_bias_to_fp16, epsilon = var_187_to_fp16, gamma = m_object_transformer_blocks_1_ffn_norm_weight_to_fp16, x = input_71_cast_fp16)[name = string("input_73_cast_fp16")];
            tensor<fp16, [2048, 256]> m_object_transformer_blocks_1_ffn_linear1_weight_to_fp16 = const()[name = string("m_object_transformer_blocks_1_ffn_linear1_weight_to_fp16"), val = tensor<fp16, [2048, 256]>(BLOBFILE(path = string("@model_path/weights/weight.bin"), offset = uint64(13207616)))];
            tensor<fp16, [2048]> m_object_transformer_blocks_1_ffn_linear1_bias_to_fp16 = const()[name = string("m_object_transformer_blocks_1_ffn_linear1_bias_to_fp16"), val = tensor<fp16, [2048]>(BLOBFILE(path = string("@model_path/weights/weight.bin"), offset = uint64(14256256)))];
            tensor<fp16, [1, 16, 2048]> linear_24_cast_fp16 = linear(bias = m_object_transformer_blocks_1_ffn_linear1_bias_to_fp16, weight = m_object_transformer_blocks_1_ffn_linear1_weight_to_fp16, x = input_73_cast_fp16)[name = string("linear_24_cast_fp16")];
            tensor<fp16, [1, 16, 2048]> input_77_cast_fp16 = relu(x = linear_24_cast_fp16)[name = string("input_77_cast_fp16")];
            tensor<fp16, [256, 2048]> m_object_transformer_blocks_1_ffn_linear2_weight_to_fp16 = const()[name = string("m_object_transformer_blocks_1_ffn_linear2_weight_to_fp16"), val = tensor<fp16, [256, 2048]>(BLOBFILE(path = string("@model_path/weights/weight.bin"), offset = uint64(14260416)))];
            tensor<fp16, [256]> m_object_transformer_blocks_1_ffn_linear2_bias_to_fp16 = const()[name = string("m_object_transformer_blocks_1_ffn_linear2_bias_to_fp16"), val = tensor<fp16, [256]>(BLOBFILE(path = string("@model_path/weights/weight.bin"), offset = uint64(15309056)))];
            tensor<fp16, [1, 16, 256]> linear_25_cast_fp16 = linear(bias = m_object_transformer_blocks_1_ffn_linear2_bias_to_fp16, weight = m_object_transformer_blocks_1_ffn_linear2_weight_to_fp16, x = input_77_cast_fp16)[name = string("linear_25_cast_fp16")];
            tensor<fp16, [1, 16, 256]> mem_7_cast_fp16 = add(x = input_71_cast_fp16, y = linear_25_cast_fp16)[name = string("mem_7_cast_fp16")];
            tensor<fp16, [1, 16, 256]> x_53_cast_fp16 = add(x = mem_7_cast_fp16, y = x_pe_cast_fp16)[name = string("x_53_cast_fp16")];
            tensor<int32, [3]> key_17_perm_0 = const()[name = string("key_17_perm_0"), val = tensor<int32, [3]>([1, 0, 2])];
            tensor<int32, [3]> value_17_perm_0 = const()[name = string("value_17_perm_0"), val = tensor<int32, [3]>([1, 0, 2])];
            tensor<fp16, [256, 256]> var_1016_0_to_fp16 = const()[name = string("op_1016_0_to_fp16"), val = tensor<fp16, [256, 256]>(BLOBFILE(path = string("@model_path/weights/weight.bin"), offset = uint64(15309632)))];
            tensor<fp16, [256]> var_1019_0_to_fp16 = const()[name = string("op_1019_0_to_fp16"), val = tensor<fp16, [256]>(BLOBFILE(path = string("@model_path/weights/weight.bin"), offset = uint64(15440768)))];
            tensor<fp16, [576, 1, 256]> linear_26_cast_fp16 = linear(bias = var_1019_0_to_fp16, weight = var_1016_0_to_fp16, x = key_11_cast_fp16)[name = string("linear_26_cast_fp16")];
            tensor<fp16, [256, 256]> var_1016_1_to_fp16 = const()[name = string("op_1016_1_to_fp16"), val = tensor<fp16, [256, 256]>(BLOBFILE(path = string("@model_path/weights/weight.bin"), offset = uint64(15441344)))];
            tensor<fp16, [256]> var_1019_1_to_fp16 = const()[name = string("op_1019_1_to_fp16"), val = tensor<fp16, [256]>(BLOBFILE(path = string("@model_path/weights/weight.bin"), offset = uint64(15572480)))];
            tensor<fp16, [16, 1, 256]> key_17_cast_fp16 = transpose(perm = key_17_perm_0, x = x_53_cast_fp16)[name = string("transpose_50")];
            tensor<fp16, [16, 1, 256]> linear_27_cast_fp16 = linear(bias = var_1019_1_to_fp16, weight = var_1016_1_to_fp16, x = key_17_cast_fp16)[name = string("linear_27_cast_fp16")];
            tensor<fp16, [256, 256]> var_1016_2_to_fp16 = const()[name = string("op_1016_2_to_fp16"), val = tensor<fp16, [256, 256]>(BLOBFILE(path = string("@model_path/weights/weight.bin"), offset = uint64(15573056)))];
            tensor<fp16, [256]> var_1019_2_to_fp16 = const()[name = string("op_1019_2_to_fp16"), val = tensor<fp16, [256]>(BLOBFILE(path = string("@model_path/weights/weight.bin"), offset = uint64(15704192)))];
            tensor<fp16, [16, 1, 256]> value_17_cast_fp16 = transpose(perm = value_17_perm_0, x = mem_7_cast_fp16)[name = string("transpose_49")];
            tensor<fp16, [16, 1, 256]> linear_28_cast_fp16 = linear(bias = var_1019_2_to_fp16, weight = var_1016_2_to_fp16, x = value_17_cast_fp16)[name = string("linear_28_cast_fp16")];
            tensor<int32, [3]> var_1028 = const()[name = string("op_1028"), val = tensor<int32, [3]>([576, 8, 32])];
            tensor<fp16, [576, 8, 32]> var_1029_cast_fp16 = reshape(shape = var_1028, x = linear_26_cast_fp16)[name = string("op_1029_cast_fp16")];
            tensor<int32, [3]> q_23_perm_0 = const()[name = string("q_23_perm_0"), val = tensor<int32, [3]>([1, 0, 2])];
            tensor<int32, [3]> var_1035 = const()[name = string("op_1035"), val = tensor<int32, [3]>([16, 8, 32])];
            tensor<fp16, [16, 8, 32]> var_1036_cast_fp16 = reshape(shape = var_1035, x = linear_27_cast_fp16)[name = string("op_1036_cast_fp16")];
            tensor<int32, [3]> k_23_perm_0 = const()[name = string("k_23_perm_0"), val = tensor<int32, [3]>([1, 0, 2])];
            tensor<int32, [3]> var_1042 = const()[name = string("op_1042"), val = tensor<int32, [3]>([16, 8, 32])];
            tensor<fp16, [16, 8, 32]> var_1043_cast_fp16 = reshape(shape = var_1042, x = linear_28_cast_fp16)[name = string("op_1043_cast_fp16")];
            tensor<int32, [3]> v_23_perm_0 = const()[name = string("v_23_perm_0"), val = tensor<int32, [3]>([1, 0, 2])];
            tensor<int32, [4]> var_1046 = const()[name = string("op_1046"), val = tensor<int32, [4]>([1, 8, 576, 32])];
            tensor<fp16, [8, 576, 32]> q_23_cast_fp16 = transpose(perm = q_23_perm_0, x = var_1029_cast_fp16)[name = string("transpose_48")];
            tensor<fp16, [1, 8, 576, 32]> query_19_cast_fp16 = reshape(shape = var_1046, x = q_23_cast_fp16)[name = string("query_19_cast_fp16")];
            tensor<int32, [4]> var_1048 = const()[name = string("op_1048"), val = tensor<int32, [4]>([1, 8, 16, 32])];
            tensor<fp16, [8, 16, 32]> k_23_cast_fp16 = transpose(perm = k_23_perm_0, x = var_1036_cast_fp16)[name = string("transpose_47")];
            tensor<fp16, [1, 8, 16, 32]> key_19_cast_fp16 = reshape(shape = var_1048, x = k_23_cast_fp16)[name = string("key_19_cast_fp16")];
            tensor<int32, [4]> var_1050 = const()[name = string("op_1050"), val = tensor<int32, [4]>([1, 8, 16, 32])];
            tensor<fp16, [8, 16, 32]> v_23_cast_fp16 = transpose(perm = v_23_perm_0, x = var_1043_cast_fp16)[name = string("transpose_46")];
            tensor<fp16, [1, 8, 16, 32]> value_19_cast_fp16 = reshape(shape = var_1050, x = v_23_cast_fp16)[name = string("value_19_cast_fp16")];
            bool var_1053_transpose_x_1 = const()[name = string("op_1053_transpose_x_1"), val = bool(false)];
            bool var_1053_transpose_y_1 = const()[name = string("op_1053_transpose_y_1"), val = bool(true)];
            tensor<fp16, [1, 8, 576, 16]> var_1053_cast_fp16 = matmul(transpose_x = var_1053_transpose_x_1, transpose_y = var_1053_transpose_y_1, x = query_19_cast_fp16, y = key_19_cast_fp16)[name = string("op_1053_cast_fp16")];
            fp16 var_1054_to_fp16 = const()[name = string("op_1054_to_fp16"), val = fp16(0x1.6ap-3)];
            tensor<fp16, [1, 8, 576, 16]> attn_17_cast_fp16 = mul(x = var_1053_cast_fp16, y = var_1054_to_fp16)[name = string("attn_17_cast_fp16")];
            tensor<fp16, [1, 8, 576, 16]> attn_19_cast_fp16 = softmax(axis = var_201, x = attn_17_cast_fp16)[name = string("attn_19_cast_fp16")];
            bool attn_output_41_transpose_x_0 = const()[name = string("attn_output_41_transpose_x_0"), val = bool(false)];
            bool attn_output_41_transpose_y_0 = const()[name = string("attn_output_41_transpose_y_0"), val = bool(false)];
            tensor<fp16, [1, 8, 576, 32]> attn_output_41_cast_fp16 = matmul(transpose_x = attn_output_41_transpose_x_0, transpose_y = attn_output_41_transpose_y_0, x = attn_19_cast_fp16, y = value_19_cast_fp16)[name = string("attn_output_41_cast_fp16")];
            tensor<int32, [4]> var_1058 = const()[name = string("op_1058"), val = tensor<int32, [4]>([2, 0, 1, 3])];
            tensor<int32, [2]> var_1063 = const()[name = string("op_1063"), val = tensor<int32, [2]>([576, 256])];
            tensor<fp16, [576, 1, 8, 32]> var_1059_cast_fp16 = transpose(perm = var_1058, x = attn_output_41_cast_fp16)[name = string("transpose_45")];
            tensor<fp16, [576, 256]> attn_output_43_cast_fp16 = reshape(shape = var_1063, x = var_1059_cast_fp16)[name = string("attn_output_43_cast_fp16")];
            tensor<fp16, [256, 256]> m_object_transformer_blocks_1_read_from_query_cross_attn_out_proj_weight_to_fp16 = const()[name = string("m_object_transformer_blocks_1_read_from_query_cross_attn_out_proj_weight_to_fp16"), val = tensor<fp16, [256, 256]>(BLOBFILE(path = string("@model_path/weights/weight.bin"), offset = uint64(15704768)))];
            tensor<fp16, [256]> m_object_transformer_blocks_1_read_from_query_cross_attn_out_proj_bias_to_fp16 = const()[name = string("m_object_transformer_blocks_1_read_from_query_cross_attn_out_proj_bias_to_fp16"), val = tensor<fp16, [256]>(BLOBFILE(path = string("@model_path/weights/weight.bin"), offset = uint64(15835904)))];
            tensor<fp16, [576, 256]> linear_29_cast_fp16 = linear(bias = m_object_transformer_blocks_1_read_from_query_cross_attn_out_proj_bias_to_fp16, weight = m_object_transformer_blocks_1_read_from_query_cross_attn_out_proj_weight_to_fp16, x = attn_output_43_cast_fp16)[name = string("linear_29_cast_fp16")];
            tensor<int32, [3]> var_1067 = const()[name = string("op_1067"), val = tensor<int32, [3]>([576, 1, 256])];
            tensor<fp16, [576, 1, 256]> attn_output_47_cast_fp16 = reshape(shape = var_1067, x = linear_29_cast_fp16)[name = string("attn_output_47_cast_fp16")];
            tensor<int32, [3]> input_79_perm_0 = const()[name = string("input_79_perm_0"), val = tensor<int32, [3]>([1, 0, 2])];
            tensor<fp16, [1, 576, 256]> input_79_cast_fp16 = transpose(perm = input_79_perm_0, x = attn_output_47_cast_fp16)[name = string("transpose_44")];
            tensor<fp16, [1, 576, 256]> pixel_flat_5_cast_fp16 = add(x = var_809_cast_fp16, y = input_79_cast_fp16)[name = string("pixel_flat_5_cast_fp16")];
            tensor<int32, [4]> var_1081 = const()[name = string("op_1081"), val = tensor<int32, [4]>([1, 32, 18, 256])];
            tensor<fp16, [1, 32, 18, 256]> pixel_flat_7_cast_fp16 = reshape(shape = var_1081, x = pixel_flat_5_cast_fp16)[name = string("pixel_flat_7_cast_fp16")];
            tensor<int32, [4]> var_1083 = const()[name = string("op_1083"), val = tensor<int32, [4]>([0, 3, 1, 2])];
            tensor<fp16, [1, 256, 32, 18]> var_1084_cast_fp16 = transpose(perm = var_1083, x = pixel_flat_7_cast_fp16)[name = string("transpose_43")];
            tensor<fp16, [1, 256, 32, 18]> input_83_cast_fp16 = relu(x = var_1084_cast_fp16)[name = string("input_83_cast_fp16")];
            string input_85_pad_type_0 = const()[name = string("input_85_pad_type_0"), val = string("custom")];
            tensor<int32, [4]> input_85_pad_0 = const()[name = string("input_85_pad_0"), val = tensor<int32, [4]>([1, 1, 1, 1])];
            tensor<int32, [2]> input_85_strides_0 = const()[name = string("input_85_strides_0"), val = tensor<int32, [2]>([1, 1])];
            tensor<int32, [2]> input_85_dilations_0 = const()[name = string("input_85_dilations_0"), val = tensor<int32, [2]>([1, 1])];
            int32 input_85_groups_0 = const()[name = string("input_85_groups_0"), val = int32(1)];
            tensor<fp16, [256, 256, 3, 3]> m_object_transformer_blocks_1_pixel_ffn_conv_conv1_weight_to_fp16 = const()[name = string("m_object_transformer_blocks_1_pixel_ffn_conv_conv1_weight_to_fp16"), val = tensor<fp16, [256, 256, 3, 3]>(BLOBFILE(path = string("@model_path/weights/weight.bin"), offset = uint64(15836480)))];
            tensor<fp16, [256]> m_object_transformer_blocks_1_pixel_ffn_conv_conv1_bias_to_fp16 = const()[name = string("m_object_transformer_blocks_1_pixel_ffn_conv_conv1_bias_to_fp16"), val = tensor<fp16, [256]>(BLOBFILE(path = string("@model_path/weights/weight.bin"), offset = uint64(17016192)))];
            tensor<fp16, [1, 256, 32, 18]> input_85_cast_fp16 = conv(bias = m_object_transformer_blocks_1_pixel_ffn_conv_conv1_bias_to_fp16, dilations = input_85_dilations_0, groups = input_85_groups_0, pad = input_85_pad_0, pad_type = input_85_pad_type_0, strides = input_85_strides_0, weight = m_object_transformer_blocks_1_pixel_ffn_conv_conv1_weight_to_fp16, x = input_83_cast_fp16)[name = string("input_85_cast_fp16")];
            tensor<fp16, [1, 256, 32, 18]> input_87_cast_fp16 = relu(x = input_85_cast_fp16)[name = string("input_87_cast_fp16")];
            string x_57_pad_type_0 = const()[name = string("x_57_pad_type_0"), val = string("custom")];
            tensor<int32, [4]> x_57_pad_0 = const()[name = string("x_57_pad_0"), val = tensor<int32, [4]>([1, 1, 1, 1])];
            tensor<int32, [2]> x_57_strides_0 = const()[name = string("x_57_strides_0"), val = tensor<int32, [2]>([1, 1])];
            tensor<int32, [2]> x_57_dilations_0 = const()[name = string("x_57_dilations_0"), val = tensor<int32, [2]>([1, 1])];
            int32 x_57_groups_0 = const()[name = string("x_57_groups_0"), val = int32(1)];
            tensor<fp16, [256, 256, 3, 3]> m_object_transformer_blocks_1_pixel_ffn_conv_conv2_weight_to_fp16 = const()[name = string("m_object_transformer_blocks_1_pixel_ffn_conv_conv2_weight_to_fp16"), val = tensor<fp16, [256, 256, 3, 3]>(BLOBFILE(path = string("@model_path/weights/weight.bin"), offset = uint64(17016768)))];
            tensor<fp16, [256]> m_object_transformer_blocks_1_pixel_ffn_conv_conv2_bias_to_fp16 = const()[name = string("m_object_transformer_blocks_1_pixel_ffn_conv_conv2_bias_to_fp16"), val = tensor<fp16, [256]>(BLOBFILE(path = string("@model_path/weights/weight.bin"), offset = uint64(18196480)))];
            tensor<fp16, [1, 256, 32, 18]> x_57_cast_fp16 = conv(bias = m_object_transformer_blocks_1_pixel_ffn_conv_conv2_bias_to_fp16, dilations = x_57_dilations_0, groups = x_57_groups_0, pad = x_57_pad_0, pad_type = x_57_pad_type_0, strides = x_57_strides_0, weight = m_object_transformer_blocks_1_pixel_ffn_conv_conv2_weight_to_fp16, x = input_87_cast_fp16)[name = string("x_57_cast_fp16")];
            tensor<int32, [2]> w_43_axes_0 = const()[name = string("w_43_axes_0"), val = tensor<int32, [2]>([-2, -1])];
            bool w_43_keep_dims_0 = const()[name = string("w_43_keep_dims_0"), val = bool(true)];
            tensor<fp16, [1, 256, 1, 1]> w_43_cast_fp16 = reduce_mean(axes = w_43_axes_0, keep_dims = w_43_keep_dims_0, x = x_57_cast_fp16)[name = string("w_43_cast_fp16")];
            tensor<int32, [4]> var_1110 = const()[name = string("op_1110"), val = tensor<int32, [4]>([1, 1, 256, 1])];
            tensor<fp16, [1, 1, 256, 1]> w_45_cast_fp16 = reshape(shape = var_1110, x = w_43_cast_fp16)[name = string("w_45_cast_fp16")];
            string w_47_pad_type_0 = const()[name = string("w_47_pad_type_0"), val = string("custom")];
            tensor<int32, [4]> w_47_pad_0 = const()[name = string("w_47_pad_0"), val = tensor<int32, [4]>([2, 2, 0, 0])];
            tensor<int32, [2]> w_47_strides_0 = const()[name = string("w_47_strides_0"), val = tensor<int32, [2]>([1, 1])];
            tensor<int32, [2]> w_47_dilations_0 = const()[name = string("w_47_dilations_0"), val = tensor<int32, [2]>([1, 1])];
            int32 w_47_groups_0 = const()[name = string("w_47_groups_0"), val = int32(1)];
            tensor<fp16, [1, 1, 5, 1]> k2_7_to_fp16 = const()[name = string("k2_7_to_fp16"), val = tensor<fp16, [1, 1, 5, 1]>([[[[0x1.1cp-2], [0x1.d68p-2], [0x1.eap-2], [-0x1.84p-5], [0x1.388p-6]]]])];
            tensor<fp16, [1, 1, 256, 1]> w_47_cast_fp16 = conv(dilations = w_47_dilations_0, groups = w_47_groups_0, pad = w_47_pad_0, pad_type = w_47_pad_type_0, strides = w_47_strides_0, weight = k2_7_to_fp16, x = w_45_cast_fp16)[name = string("w_47_cast_fp16")];
            tensor<int32, [4]> var_1118 = const()[name = string("op_1118"), val = tensor<int32, [4]>([1, 256, 1, 1])];
            tensor<fp16, [1, 256, 1, 1]> var_1119_cast_fp16 = reshape(shape = var_1118, x = w_47_cast_fp16)[name = string("op_1119_cast_fp16")];
            tensor<fp16, [1, 256, 1, 1]> w_49_cast_fp16 = sigmoid(x = var_1119_cast_fp16)[name = string("w_49_cast_fp16")];
            tensor<fp16, [1, 256, 32, 18]> var_1121_cast_fp16 = mul(x = x_57_cast_fp16, y = w_49_cast_fp16)[name = string("op_1121_cast_fp16")];
            tensor<fp16, [1, 256, 32, 18]> x_59_cast_fp16 = add(x = var_1121_cast_fp16, y = var_1084_cast_fp16)[name = string("x_59_cast_fp16")];
            tensor<int32, [5]> var_1123 = const()[name = string("op_1123"), val = tensor<int32, [5]>([1, 1, 256, 32, 18])];
            tensor<fp16, [1, 1, 256, 32, 18]> input_89_cast_fp16 = reshape(shape = var_1123, x = x_59_cast_fp16)[name = string("input_89_cast_fp16")];
            tensor<fp16, [1, 1, 256, 32, 18]> g_27_cast_fp16 = relu(x = input_89_cast_fp16)[name = string("g_27_cast_fp16")];
            tensor<int32, [4]> concat_46 = const()[name = string("concat_46"), val = tensor<int32, [4]>([1, 256, 32, 18])];
            tensor<fp16, [1, 256, 32, 18]> input_91_cast_fp16 = reshape(shape = concat_46, x = g_27_cast_fp16)[name = string("input_91_cast_fp16")];
            string g_29_pad_type_0 = const()[name = string("g_29_pad_type_0"), val = string("valid")];
            tensor<int32, [2]> g_29_strides_0 = const()[name = string("g_29_strides_0"), val = tensor<int32, [2]>([1, 1])];
            tensor<int32, [4]> g_29_pad_0 = const()[name = string("g_29_pad_0"), val = tensor<int32, [4]>([0, 0, 0, 0])];
            tensor<int32, [2]> g_29_dilations_0 = const()[name = string("g_29_dilations_0"), val = tensor<int32, [2]>([1, 1])];
            int32 g_29_groups_0 = const()[name = string("g_29_groups_0"), val = int32(1)];
            tensor<fp16, [1, 256, 1, 1]> m_object_transformer_mask_pred_2_1_weight_to_fp16 = const()[name = string("m_object_transformer_mask_pred_2_1_weight_to_fp16"), val = tensor<fp16, [1, 256, 1, 1]>(BLOBFILE(path = string("@model_path/weights/weight.bin"), offset = uint64(18197056)))];
            tensor<fp16, [1]> m_object_transformer_mask_pred_2_1_bias_to_fp16 = const()[name = string("m_object_transformer_mask_pred_2_1_bias_to_fp16"), val = tensor<fp16, [1]>([0x1.2p-21])];
            tensor<fp16, [1, 1, 32, 18]> g_29_cast_fp16 = conv(bias = m_object_transformer_mask_pred_2_1_bias_to_fp16, dilations = g_29_dilations_0, groups = g_29_groups_0, pad = g_29_pad_0, pad_type = g_29_pad_type_0, strides = g_29_strides_0, weight = m_object_transformer_mask_pred_2_1_weight_to_fp16, x = input_91_cast_fp16)[name = string("g_29_cast_fp16")];
            tensor<int32, [5]> var_1143 = const()[name = string("op_1143"), val = tensor<int32, [5]>([1, 1, 1, 32, 18])];
            tensor<fp16, [1, 1, 1, 32, 18]> var_1144_cast_fp16 = reshape(shape = var_1143, x = g_29_cast_fp16)[name = string("op_1144_cast_fp16")];
            tensor<int32, [1]> logits_9_axes_0 = const()[name = string("logits_9_axes_0"), val = tensor<int32, [1]>([2])];
            tensor<fp16, [1, 1, 32, 18]> logits_9_cast_fp16 = squeeze(axes = logits_9_axes_0, x = var_1144_cast_fp16)[name = string("logits_9_cast_fp16")];
            tensor<fp16, [1, 1, 32, 18]> prob_9_cast_fp16 = sigmoid(x = logits_9_cast_fp16)[name = string("prob_9_cast_fp16")];
            fp16 var_209_promoted_4_to_fp16 = const()[name = string("op_209_promoted_4_to_fp16"), val = fp16(0x1p+0)];
            tensor<fp16, [1, 1, 32, 18]> var_1148_cast_fp16 = sub(x = var_209_promoted_4_to_fp16, y = prob_9_cast_fp16)[name = string("op_1148_cast_fp16")];
            tensor<int32, [1]> var_1149_axes_0 = const()[name = string("op_1149_axes_0"), val = tensor<int32, [1]>([1])];
            bool var_1149_keep_dims_0 = const()[name = string("op_1149_keep_dims_0"), val = bool(true)];
            tensor<fp16, [1, 1, 32, 18]> var_1149_cast_fp16 = reduce_prod(axes = var_1149_axes_0, keep_dims = var_1149_keep_dims_0, x = var_1148_cast_fp16)[name = string("op_1149_cast_fp16")];
            bool var_1151_interleave_0 = const()[name = string("op_1151_interleave_0"), val = bool(false)];
            tensor<fp16, [1, 2, 32, 18]> var_1151_cast_fp16 = concat(axis = var_209, interleave = var_1151_interleave_0, values = (var_1149_cast_fp16, prob_9_cast_fp16))[name = string("op_1151_cast_fp16")];
            tensor<fp16, [1, 2, 32, 18]> clip_2_cast_fp16 = clip(alpha = var_191_to_fp16, beta = var_190_to_fp16, x = var_1151_cast_fp16)[name = string("clip_2_cast_fp16")];
            fp16 var_209_promoted_5_to_fp16 = const()[name = string("op_209_promoted_5_to_fp16"), val = fp16(0x1p+0)];
            tensor<fp16, [1, 2, 32, 18]> var_1153_cast_fp16 = sub(x = var_209_promoted_5_to_fp16, y = clip_2_cast_fp16)[name = string("op_1153_cast_fp16")];
            tensor<fp16, [1, 2, 32, 18]> var_1154_cast_fp16 = real_div(x = clip_2_cast_fp16, y = var_1153_cast_fp16)[name = string("op_1154_cast_fp16")];
            fp32 logits_11_epsilon_0 = const()[name = string("logits_11_epsilon_0"), val = fp32(0x1p-149)];
            tensor<fp16, [1, 2, 32, 18]> logits_11_cast_fp16 = log(epsilon = logits_11_epsilon_0, x = var_1154_cast_fp16)[name = string("logits_11_cast_fp16")];
            tensor<int32, [4]> var_1157_begin_0 = const()[name = string("op_1157_begin_0"), val = tensor<int32, [4]>([0, 1, 0, 0])];
            tensor<int32, [4]> var_1157_end_0 = const()[name = string("op_1157_end_0"), val = tensor<int32, [4]>([1, 2, 32, 18])];
            tensor<bool, [4]> var_1157_end_mask_0 = const()[name = string("op_1157_end_mask_0"), val = tensor<bool, [4]>([true, true, true, true])];
            tensor<fp16, [1, 1, 32, 18]> var_1157_cast_fp16 = slice_by_index(begin = var_1157_begin_0, end = var_1157_end_0, end_mask = var_1157_end_mask_0, x = logits_11_cast_fp16)[name = string("op_1157_cast_fp16")];
            tensor<int32, [1]> reduce_max_2_axes_0 = const()[name = string("reduce_max_2_axes_0"), val = tensor<int32, [1]>([1])];
            bool reduce_max_2_keep_dims_0 = const()[name = string("reduce_max_2_keep_dims_0"), val = bool(true)];
            tensor<fp16, [1, 1, 32, 18]> reduce_max_2_cast_fp16 = reduce_max(axes = reduce_max_2_axes_0, keep_dims = reduce_max_2_keep_dims_0, x = logits_11_cast_fp16)[name = string("reduce_max_2_cast_fp16")];
            tensor<bool, [1, 1, 32, 18]> is_foreground_9_cast_fp16 = greater_equal(x = var_1157_cast_fp16, y = reduce_max_2_cast_fp16)[name = string("is_foreground_9_cast_fp16")];
            tensor<int32, [3]> concat_47 = const()[name = string("concat_47"), val = tensor<int32, [3]>([1, 1, 576])];
            tensor<bool, [1, 1, 576]> foreground_mask_5 = reshape(shape = concat_47, x = is_foreground_9_cast_fp16)[name = string("foreground_mask_5")];
            tensor<bool, [1, 1, 576]> inv_foreground_mask_5 = logical_not(x = foreground_mask_5)[name = string("inv_foreground_mask_5")];
            tensor<int32, [1]> var_1164_axes_0 = const()[name = string("op_1164_axes_0"), val = tensor<int32, [1]>([2])];
            tensor<bool, [1, 1, 1, 576]> var_1164 = expand_dims(axes = var_1164_axes_0, x = inv_foreground_mask_5)[name = string("op_1164")];
            tensor<int32, [1]> var_1165_axes_0 = const()[name = string("op_1165_axes_0"), val = tensor<int32, [1]>([2])];
            tensor<bool, [1, 1, 1, 1, 576]> var_1165 = expand_dims(axes = var_1165_axes_0, x = var_1164)[name = string("op_1165")];
            tensor<int32, [5]> var_1166 = const()[name = string("op_1166"), val = tensor<int32, [5]>([1, 1, 8, 8, 1])];
            tensor<bool, [1, 1, 8, 8, 576]> var_1167 = tile(reps = var_1166, x = var_1165)[name = string("op_1167")];
            tensor<int32, [3]> concat_48 = const()[name = string("concat_48"), val = tensor<int32, [3]>([8, 8, 576])];
            tensor<bool, [8, 8, 576]> aux_foreground_mask_5 = reshape(shape = concat_48, x = var_1167)[name = string("aux_foreground_mask_5")];
            tensor<int32, [1]> var_1169_axes_0 = const()[name = string("op_1169_axes_0"), val = tensor<int32, [1]>([2])];
            tensor<bool, [1, 1, 1, 576]> var_1169 = expand_dims(axes = var_1169_axes_0, x = foreground_mask_5)[name = string("op_1169")];
            tensor<int32, [1]> var_1170_axes_0 = const()[name = string("op_1170_axes_0"), val = tensor<int32, [1]>([2])];
            tensor<bool, [1, 1, 1, 1, 576]> var_1170 = expand_dims(axes = var_1170_axes_0, x = var_1169)[name = string("op_1170")];
            tensor<int32, [5]> var_1171 = const()[name = string("op_1171"), val = tensor<int32, [5]>([1, 1, 8, 8, 1])];
            tensor<bool, [1, 1, 8, 8, 576]> var_1172 = tile(reps = var_1171, x = var_1170)[name = string("op_1172")];
            tensor<int32, [3]> concat_49 = const()[name = string("concat_49"), val = tensor<int32, [3]>([8, 8, 576])];
            tensor<bool, [8, 8, 576]> aux_background_mask_5 = reshape(shape = concat_49, x = var_1172)[name = string("aux_background_mask_5")];
            bool aux_mask_5_interleave_0 = const()[name = string("aux_mask_5_interleave_0"), val = bool(false)];
            tensor<bool, [8, 16, 576]> aux_mask_5 = concat(axis = var_209, interleave = aux_mask_5_interleave_0, values = (aux_foreground_mask_5, aux_background_mask_5))[name = string("aux_mask_5")];
            tensor<int32, [1]> var_1177_axes_0 = const()[name = string("op_1177_axes_0"), val = tensor<int32, [1]>([-1])];
            bool var_1177_keep_dims_0 = const()[name = string("op_1177_keep_dims_0"), val = bool(true)];
            string cast_133_to_fp16_dtype_0 = const()[name = string("cast_133_to_fp16_dtype_0"), val = string("fp16")];
            tensor<fp16, [8, 16, 576]> aux_mask_5_to_fp16 = cast(dtype = cast_133_to_fp16_dtype_0, x = aux_mask_5)[name = string("cast_173")];
            tensor<fp16, [8, 16, 1]> var_1177_cast_fp16 = reduce_sum(axes = var_1177_axes_0, keep_dims = var_1177_keep_dims_0, x = aux_mask_5_to_fp16)[name = string("op_1177_cast_fp16")];
            tensor<fp16, [1]> var_1179_promoted_to_fp16 = const()[name = string("op_1179_promoted_to_fp16"), val = tensor<fp16, [1]>([0x1.2p+9])];
            tensor<bool, [8, 16, 1]> all_masked_5_cast_fp16 = equal(x = var_1177_cast_fp16, y = var_1179_promoted_to_fp16)[name = string("all_masked_5_cast_fp16")];
            tensor<bool, [8, 16, 1]> var_1181 = logical_not(x = all_masked_5_cast_fp16)[name = string("op_1181")];
            tensor<bool, [8, 16, 576]> mask = logical_and(x = aux_mask_5, y = var_1181)[name = string("mask")];
            tensor<int32, [3]> concat_51 = const()[name = string("concat_51"), val = tensor<int32, [3]>([1, 256, 576])];
            tensor<fp16, [1, 256, 576]> var_1189_cast_fp16 = reshape(shape = concat_51, x = input_89_cast_fp16)[name = string("op_1189_cast_fp16")];
            tensor<int32, [3]> var_1190_perm_0 = const()[name = string("op_1190_perm_0"), val = tensor<int32, [3]>([0, 2, 1])];
            tensor<int32, [1]> x_61_axes_0 = const()[name = string("x_61_axes_0"), val = tensor<int32, [1]>([-1])];
            tensor<fp16, [256]> m_object_transformer_blocks_2_read_from_pixel_norm_weight_to_fp16 = const()[name = string("m_object_transformer_blocks_2_read_from_pixel_norm_weight_to_fp16"), val = tensor<fp16, [256]>(BLOBFILE(path = string("@model_path/weights/weight.bin"), offset = uint64(18197632)))];
            tensor<fp16, [256]> m_object_transformer_blocks_2_read_from_pixel_norm_bias_to_fp16 = const()[name = string("m_object_transformer_blocks_2_read_from_pixel_norm_bias_to_fp16"), val = tensor<fp16, [256]>(BLOBFILE(path = string("@model_path/weights/weight.bin"), offset = uint64(18198208)))];
            tensor<fp16, [1, 16, 256]> x_61_cast_fp16 = layer_norm(axes = x_61_axes_0, beta = m_object_transformer_blocks_2_read_from_pixel_norm_bias_to_fp16, epsilon = var_187_to_fp16, gamma = m_object_transformer_blocks_2_read_from_pixel_norm_weight_to_fp16, x = mem_7_cast_fp16)[name = string("x_61_cast_fp16")];
            tensor<fp16, [1, 16, 256]> x_63_cast_fp16 = add(x = x_61_cast_fp16, y = x_pe_cast_fp16)[name = string("x_63_cast_fp16")];
            tensor<fp16, [1, 576, 256]> var_1190_cast_fp16 = transpose(perm = var_1190_perm_0, x = var_1189_cast_fp16)[name = string("transpose_42")];
            tensor<fp16, [1, 576, 256]> x_65_cast_fp16 = add(x = var_1190_cast_fp16, y = mem_pe_cast_fp16)[name = string("x_65_cast_fp16")];
            tensor<fp16, [8, 16, 576]> attn_mask_9_cast_fp16 = select(a = var_184_to_fp16, b = var_444_to_fp16, cond = mask)[name = string("attn_mask_9_cast_fp16")];
            tensor<int32, [3]> query_21_perm_0 = const()[name = string("query_21_perm_0"), val = tensor<int32, [3]>([1, 0, 2])];
            tensor<int32, [3]> key_21_perm_0 = const()[name = string("key_21_perm_0"), val = tensor<int32, [3]>([1, 0, 2])];
            tensor<int32, [3]> value_21_perm_0 = const()[name = string("value_21_perm_0"), val = tensor<int32, [3]>([1, 0, 2])];
            tensor<fp16, [256, 256]> var_1224_0_to_fp16 = const()[name = string("op_1224_0_to_fp16"), val = tensor<fp16, [256, 256]>(BLOBFILE(path = string("@model_path/weights/weight.bin"), offset = uint64(18198784)))];
            tensor<fp16, [256]> var_1227_0_to_fp16 = const()[name = string("op_1227_0_to_fp16"), val = tensor<fp16, [256]>(BLOBFILE(path = string("@model_path/weights/weight.bin"), offset = uint64(18329920)))];
            tensor<fp16, [16, 1, 256]> query_21_cast_fp16 = transpose(perm = query_21_perm_0, x = x_63_cast_fp16)[name = string("transpose_41")];
            tensor<fp16, [16, 1, 256]> linear_30_cast_fp16 = linear(bias = var_1227_0_to_fp16, weight = var_1224_0_to_fp16, x = query_21_cast_fp16)[name = string("linear_30_cast_fp16")];
            tensor<fp16, [256, 256]> var_1224_1_to_fp16 = const()[name = string("op_1224_1_to_fp16"), val = tensor<fp16, [256, 256]>(BLOBFILE(path = string("@model_path/weights/weight.bin"), offset = uint64(18330496)))];
            tensor<fp16, [256]> var_1227_1_to_fp16 = const()[name = string("op_1227_1_to_fp16"), val = tensor<fp16, [256]>(BLOBFILE(path = string("@model_path/weights/weight.bin"), offset = uint64(18461632)))];
            tensor<fp16, [576, 1, 256]> key_21_cast_fp16 = transpose(perm = key_21_perm_0, x = x_65_cast_fp16)[name = string("transpose_40")];
            tensor<fp16, [576, 1, 256]> linear_31_cast_fp16 = linear(bias = var_1227_1_to_fp16, weight = var_1224_1_to_fp16, x = key_21_cast_fp16)[name = string("linear_31_cast_fp16")];
            tensor<fp16, [256, 256]> var_1224_2_to_fp16 = const()[name = string("op_1224_2_to_fp16"), val = tensor<fp16, [256, 256]>(BLOBFILE(path = string("@model_path/weights/weight.bin"), offset = uint64(18462208)))];
            tensor<fp16, [256]> var_1227_2_to_fp16 = const()[name = string("op_1227_2_to_fp16"), val = tensor<fp16, [256]>(BLOBFILE(path = string("@model_path/weights/weight.bin"), offset = uint64(18593344)))];
            tensor<fp16, [576, 1, 256]> value_21_cast_fp16 = transpose(perm = value_21_perm_0, x = var_1190_cast_fp16)[name = string("transpose_39")];
            tensor<fp16, [576, 1, 256]> linear_32_cast_fp16 = linear(bias = var_1227_2_to_fp16, weight = var_1224_2_to_fp16, x = value_21_cast_fp16)[name = string("linear_32_cast_fp16")];
            tensor<int32, [3]> var_1236 = const()[name = string("op_1236"), val = tensor<int32, [3]>([16, 8, 32])];
            tensor<fp16, [16, 8, 32]> var_1237_cast_fp16 = reshape(shape = var_1236, x = linear_30_cast_fp16)[name = string("op_1237_cast_fp16")];
            tensor<int32, [3]> q_27_perm_0 = const()[name = string("q_27_perm_0"), val = tensor<int32, [3]>([1, 0, 2])];
            tensor<int32, [3]> var_1243 = const()[name = string("op_1243"), val = tensor<int32, [3]>([576, 8, 32])];
            tensor<fp16, [576, 8, 32]> var_1244_cast_fp16 = reshape(shape = var_1243, x = linear_31_cast_fp16)[name = string("op_1244_cast_fp16")];
            tensor<int32, [3]> k_27_perm_0 = const()[name = string("k_27_perm_0"), val = tensor<int32, [3]>([1, 0, 2])];
            tensor<int32, [3]> var_1250 = const()[name = string("op_1250"), val = tensor<int32, [3]>([576, 8, 32])];
            tensor<fp16, [576, 8, 32]> var_1251_cast_fp16 = reshape(shape = var_1250, x = linear_32_cast_fp16)[name = string("op_1251_cast_fp16")];
            tensor<int32, [3]> v_27_perm_0 = const()[name = string("v_27_perm_0"), val = tensor<int32, [3]>([1, 0, 2])];
            tensor<int32, [4]> var_1254 = const()[name = string("op_1254"), val = tensor<int32, [4]>([1, 8, -1, 576])];
            tensor<fp16, [1, 8, 16, 576]> attn_mask_cast_fp16 = reshape(shape = var_1254, x = attn_mask_9_cast_fp16)[name = string("attn_mask_cast_fp16")];
            tensor<int32, [4]> var_1256 = const()[name = string("op_1256"), val = tensor<int32, [4]>([1, 8, 16, 32])];
            tensor<fp16, [8, 16, 32]> q_27_cast_fp16 = transpose(perm = q_27_perm_0, x = var_1237_cast_fp16)[name = string("transpose_38")];
            tensor<fp16, [1, 8, 16, 32]> query_23_cast_fp16 = reshape(shape = var_1256, x = q_27_cast_fp16)[name = string("query_23_cast_fp16")];
            tensor<int32, [4]> var_1258 = const()[name = string("op_1258"), val = tensor<int32, [4]>([1, 8, 576, 32])];
            tensor<fp16, [8, 576, 32]> k_27_cast_fp16 = transpose(perm = k_27_perm_0, x = var_1244_cast_fp16)[name = string("transpose_37")];
            tensor<fp16, [1, 8, 576, 32]> key_23_cast_fp16 = reshape(shape = var_1258, x = k_27_cast_fp16)[name = string("key_23_cast_fp16")];
            tensor<int32, [4]> var_1260 = const()[name = string("op_1260"), val = tensor<int32, [4]>([1, 8, 576, 32])];
            tensor<fp16, [8, 576, 32]> v_27_cast_fp16 = transpose(perm = v_27_perm_0, x = var_1251_cast_fp16)[name = string("transpose_36")];
            tensor<fp16, [1, 8, 576, 32]> value_23_cast_fp16 = reshape(shape = var_1260, x = v_27_cast_fp16)[name = string("value_23_cast_fp16")];
            bool var_1263_transpose_x_1 = const()[name = string("op_1263_transpose_x_1"), val = bool(false)];
            bool var_1263_transpose_y_1 = const()[name = string("op_1263_transpose_y_1"), val = bool(true)];
            tensor<fp16, [1, 8, 16, 576]> var_1263_cast_fp16 = matmul(transpose_x = var_1263_transpose_x_1, transpose_y = var_1263_transpose_y_1, x = query_23_cast_fp16, y = key_23_cast_fp16)[name = string("op_1263_cast_fp16")];
            fp16 var_1264_to_fp16 = const()[name = string("op_1264_to_fp16"), val = fp16(0x1.6ap-3)];
            tensor<fp16, [1, 8, 16, 576]> attn_21_cast_fp16 = mul(x = var_1263_cast_fp16, y = var_1264_to_fp16)[name = string("attn_21_cast_fp16")];
            tensor<fp16, [1, 8, 16, 576]> attn_23_cast_fp16 = add(x = attn_21_cast_fp16, y = attn_mask_cast_fp16)[name = string("attn_23_cast_fp16")];
            tensor<fp16, [1, 8, 16, 576]> attn_25_cast_fp16 = softmax(axis = var_201, x = attn_23_cast_fp16)[name = string("attn_25_cast_fp16")];
            bool attn_output_49_transpose_x_0 = const()[name = string("attn_output_49_transpose_x_0"), val = bool(false)];
            bool attn_output_49_transpose_y_0 = const()[name = string("attn_output_49_transpose_y_0"), val = bool(false)];
            tensor<fp16, [1, 8, 16, 32]> attn_output_49_cast_fp16 = matmul(transpose_x = attn_output_49_transpose_x_0, transpose_y = attn_output_49_transpose_y_0, x = attn_25_cast_fp16, y = value_23_cast_fp16)[name = string("attn_output_49_cast_fp16")];
            tensor<int32, [4]> var_1269 = const()[name = string("op_1269"), val = tensor<int32, [4]>([2, 0, 1, 3])];
            tensor<int32, [2]> var_1274 = const()[name = string("op_1274"), val = tensor<int32, [2]>([16, 256])];
            tensor<fp16, [16, 1, 8, 32]> var_1270_cast_fp16 = transpose(perm = var_1269, x = attn_output_49_cast_fp16)[name = string("transpose_35")];
            tensor<fp16, [16, 256]> attn_output_51_cast_fp16 = reshape(shape = var_1274, x = var_1270_cast_fp16)[name = string("attn_output_51_cast_fp16")];
            tensor<fp16, [256, 256]> m_object_transformer_blocks_2_read_from_pixel_cross_attn_out_proj_weight_to_fp16 = const()[name = string("m_object_transformer_blocks_2_read_from_pixel_cross_attn_out_proj_weight_to_fp16"), val = tensor<fp16, [256, 256]>(BLOBFILE(path = string("@model_path/weights/weight.bin"), offset = uint64(18593920)))];
            tensor<fp16, [256]> m_object_transformer_blocks_2_read_from_pixel_cross_attn_out_proj_bias_to_fp16 = const()[name = string("m_object_transformer_blocks_2_read_from_pixel_cross_attn_out_proj_bias_to_fp16"), val = tensor<fp16, [256]>(BLOBFILE(path = string("@model_path/weights/weight.bin"), offset = uint64(18725056)))];
            tensor<fp16, [16, 256]> linear_33_cast_fp16 = linear(bias = m_object_transformer_blocks_2_read_from_pixel_cross_attn_out_proj_bias_to_fp16, weight = m_object_transformer_blocks_2_read_from_pixel_cross_attn_out_proj_weight_to_fp16, x = attn_output_51_cast_fp16)[name = string("linear_33_cast_fp16")];
            tensor<int32, [3]> var_1278 = const()[name = string("op_1278"), val = tensor<int32, [3]>([16, 1, 256])];
            tensor<fp16, [16, 1, 256]> attn_output_55_cast_fp16 = reshape(shape = var_1278, x = linear_33_cast_fp16)[name = string("attn_output_55_cast_fp16")];
            tensor<int32, [3]> input_93_perm_0 = const()[name = string("input_93_perm_0"), val = tensor<int32, [3]>([1, 0, 2])];
            tensor<fp16, [1, 16, 256]> input_93_cast_fp16 = transpose(perm = input_93_perm_0, x = attn_output_55_cast_fp16)[name = string("transpose_34")];
            tensor<fp16, [1, 16, 256]> input_95_cast_fp16 = add(x = x_61_cast_fp16, y = input_93_cast_fp16)[name = string("input_95_cast_fp16")];
            tensor<int32, [1]> x_69_axes_0 = const()[name = string("x_69_axes_0"), val = tensor<int32, [1]>([-1])];
            tensor<fp16, [256]> m_object_transformer_blocks_2_self_attn_norm_weight_to_fp16 = const()[name = string("m_object_transformer_blocks_2_self_attn_norm_weight_to_fp16"), val = tensor<fp16, [256]>(BLOBFILE(path = string("@model_path/weights/weight.bin"), offset = uint64(18725632)))];
            tensor<fp16, [256]> m_object_transformer_blocks_2_self_attn_norm_bias_to_fp16 = const()[name = string("m_object_transformer_blocks_2_self_attn_norm_bias_to_fp16"), val = tensor<fp16, [256]>(BLOBFILE(path = string("@model_path/weights/weight.bin"), offset = uint64(18726208)))];
            tensor<fp16, [1, 16, 256]> x_69_cast_fp16 = layer_norm(axes = x_69_axes_0, beta = m_object_transformer_blocks_2_self_attn_norm_bias_to_fp16, epsilon = var_187_to_fp16, gamma = m_object_transformer_blocks_2_self_attn_norm_weight_to_fp16, x = input_95_cast_fp16)[name = string("x_69_cast_fp16")];
            tensor<fp16, [1, 16, 256]> x_71_cast_fp16 = add(x = x_69_cast_fp16, y = x_pe_cast_fp16)[name = string("x_71_cast_fp16")];
            tensor<int32, [3]> query_25_perm_0 = const()[name = string("query_25_perm_0"), val = tensor<int32, [3]>([1, 0, 2])];
            tensor<int32, [3]> value_25_perm_0 = const()[name = string("value_25_perm_0"), val = tensor<int32, [3]>([1, 0, 2])];
            tensor<fp16, [256, 256]> var_1309_0_to_fp16 = const()[name = string("op_1309_0_to_fp16"), val = tensor<fp16, [256, 256]>(BLOBFILE(path = string("@model_path/weights/weight.bin"), offset = uint64(18726784)))];
            tensor<fp16, [256]> var_1312_0_to_fp16 = const()[name = string("op_1312_0_to_fp16"), val = tensor<fp16, [256]>(BLOBFILE(path = string("@model_path/weights/weight.bin"), offset = uint64(18857920)))];
            tensor<fp16, [16, 1, 256]> query_25_cast_fp16 = transpose(perm = query_25_perm_0, x = x_71_cast_fp16)[name = string("transpose_33")];
            tensor<fp16, [16, 1, 256]> linear_34_cast_fp16 = linear(bias = var_1312_0_to_fp16, weight = var_1309_0_to_fp16, x = query_25_cast_fp16)[name = string("linear_34_cast_fp16")];
            tensor<fp16, [256, 256]> var_1309_1_to_fp16 = const()[name = string("op_1309_1_to_fp16"), val = tensor<fp16, [256, 256]>(BLOBFILE(path = string("@model_path/weights/weight.bin"), offset = uint64(18858496)))];
            tensor<fp16, [256]> var_1312_1_to_fp16 = const()[name = string("op_1312_1_to_fp16"), val = tensor<fp16, [256]>(BLOBFILE(path = string("@model_path/weights/weight.bin"), offset = uint64(18989632)))];
            tensor<fp16, [16, 1, 256]> linear_35_cast_fp16 = linear(bias = var_1312_1_to_fp16, weight = var_1309_1_to_fp16, x = query_25_cast_fp16)[name = string("linear_35_cast_fp16")];
            tensor<fp16, [256, 256]> var_1309_2_to_fp16 = const()[name = string("op_1309_2_to_fp16"), val = tensor<fp16, [256, 256]>(BLOBFILE(path = string("@model_path/weights/weight.bin"), offset = uint64(18990208)))];
            tensor<fp16, [256]> var_1312_2_to_fp16 = const()[name = string("op_1312_2_to_fp16"), val = tensor<fp16, [256]>(BLOBFILE(path = string("@model_path/weights/weight.bin"), offset = uint64(19121344)))];
            tensor<fp16, [16, 1, 256]> value_25_cast_fp16 = transpose(perm = value_25_perm_0, x = x_69_cast_fp16)[name = string("transpose_32")];
            tensor<fp16, [16, 1, 256]> linear_36_cast_fp16 = linear(bias = var_1312_2_to_fp16, weight = var_1309_2_to_fp16, x = value_25_cast_fp16)[name = string("linear_36_cast_fp16")];
            tensor<int32, [3]> var_1321 = const()[name = string("op_1321"), val = tensor<int32, [3]>([16, 8, 32])];
            tensor<fp16, [16, 8, 32]> var_1322_cast_fp16 = reshape(shape = var_1321, x = linear_34_cast_fp16)[name = string("op_1322_cast_fp16")];
            tensor<int32, [3]> var_1328 = const()[name = string("op_1328"), val = tensor<int32, [3]>([16, 8, 32])];
            tensor<fp16, [16, 8, 32]> var_1329_cast_fp16 = reshape(shape = var_1328, x = linear_35_cast_fp16)[name = string("op_1329_cast_fp16")];
            tensor<int32, [3]> var_1335 = const()[name = string("op_1335"), val = tensor<int32, [3]>([16, 8, 32])];
            tensor<fp16, [16, 8, 32]> var_1336_cast_fp16 = reshape(shape = var_1335, x = linear_36_cast_fp16)[name = string("op_1336_cast_fp16")];
            tensor<int32, [3]> v_31_perm_0 = const()[name = string("v_31_perm_0"), val = tensor<int32, [3]>([1, 0, 2])];
            fp16 _inversed_q_scaled_y_0_to_fp16 = const()[name = string("_inversed_q_scaled_y_0_to_fp16"), val = fp16(0x1.6ap-3)];
            tensor<fp16, [16, 8, 32]> _inversed_q_scaled_cast_fp16 = mul(x = var_1322_cast_fp16, y = _inversed_q_scaled_y_0_to_fp16)[name = string("_inversed_q_scaled_cast_fp16")];
            bool input_97_transpose_x_0 = const()[name = string("input_97_transpose_x_0"), val = bool(false)];
            bool input_97_transpose_y_0 = const()[name = string("input_97_transpose_y_0"), val = bool(false)];
            tensor<int32, [3]> transpose_17_perm_0 = const()[name = string("transpose_17_perm_0"), val = tensor<int32, [3]>([1, -3, -1])];
            tensor<int32, [3]> transpose_18_perm_0 = const()[name = string("transpose_18_perm_0"), val = tensor<int32, [3]>([1, -1, -3])];
            tensor<fp16, [8, 32, 16]> transpose_18 = transpose(perm = transpose_18_perm_0, x = var_1329_cast_fp16)[name = string("transpose_29")];
            tensor<fp16, [8, 16, 32]> transpose_17 = transpose(perm = transpose_17_perm_0, x = _inversed_q_scaled_cast_fp16)[name = string("transpose_30")];
            tensor<fp16, [8, 16, 16]> input_97_cast_fp16 = matmul(transpose_x = input_97_transpose_x_0, transpose_y = input_97_transpose_y_0, x = transpose_17, y = transpose_18)[name = string("input_97_cast_fp16")];
            tensor<fp16, [8, 16, 16]> attn_output_weights_9_cast_fp16 = softmax(axis = var_201, x = input_97_cast_fp16)[name = string("attn_output_weights_9_cast_fp16")];
            bool attn_output_57_transpose_x_0 = const()[name = string("attn_output_57_transpose_x_0"), val = bool(false)];
            bool attn_output_57_transpose_y_0 = const()[name = string("attn_output_57_transpose_y_0"), val = bool(false)];
            tensor<fp16, [8, 16, 32]> v_31_cast_fp16 = transpose(perm = v_31_perm_0, x = var_1336_cast_fp16)[name = string("transpose_31")];
            tensor<fp16, [8, 16, 32]> attn_output_57_cast_fp16 = matmul(transpose_x = attn_output_57_transpose_x_0, transpose_y = attn_output_57_transpose_y_0, x = attn_output_weights_9_cast_fp16, y = v_31_cast_fp16)[name = string("attn_output_57_cast_fp16")];
            tensor<int32, [3]> var_1344_perm_0 = const()[name = string("op_1344_perm_0"), val = tensor<int32, [3]>([1, 0, 2])];
            tensor<int32, [2]> var_1348 = const()[name = string("op_1348"), val = tensor<int32, [2]>([16, 256])];
            tensor<fp16, [16, 8, 32]> var_1344_cast_fp16 = transpose(perm = var_1344_perm_0, x = attn_output_57_cast_fp16)[name = string("transpose_28")];
            tensor<fp16, [16, 256]> attn_output_59_cast_fp16 = reshape(shape = var_1348, x = var_1344_cast_fp16)[name = string("attn_output_59_cast_fp16")];
            tensor<fp16, [256, 256]> m_object_transformer_blocks_2_self_attn_self_attn_out_proj_weight_to_fp16 = const()[name = string("m_object_transformer_blocks_2_self_attn_self_attn_out_proj_weight_to_fp16"), val = tensor<fp16, [256, 256]>(BLOBFILE(path = string("@model_path/weights/weight.bin"), offset = uint64(19121920)))];
            tensor<fp16, [256]> m_object_transformer_blocks_2_self_attn_self_attn_out_proj_bias_to_fp16 = const()[name = string("m_object_transformer_blocks_2_self_attn_self_attn_out_proj_bias_to_fp16"), val = tensor<fp16, [256]>(BLOBFILE(path = string("@model_path/weights/weight.bin"), offset = uint64(19253056)))];
            tensor<fp16, [16, 256]> linear_37_cast_fp16 = linear(bias = m_object_transformer_blocks_2_self_attn_self_attn_out_proj_bias_to_fp16, weight = m_object_transformer_blocks_2_self_attn_self_attn_out_proj_weight_to_fp16, x = attn_output_59_cast_fp16)[name = string("linear_37_cast_fp16")];
            tensor<int32, [3]> var_1352 = const()[name = string("op_1352"), val = tensor<int32, [3]>([16, 1, 256])];
            tensor<fp16, [16, 1, 256]> attn_output_63_cast_fp16 = reshape(shape = var_1352, x = linear_37_cast_fp16)[name = string("attn_output_63_cast_fp16")];
            tensor<int32, [3]> input_99_perm_0 = const()[name = string("input_99_perm_0"), val = tensor<int32, [3]>([1, 0, 2])];
            tensor<fp16, [1, 16, 256]> input_99_cast_fp16 = transpose(perm = input_99_perm_0, x = attn_output_63_cast_fp16)[name = string("transpose_27")];
            tensor<fp16, [1, 16, 256]> input_101_cast_fp16 = add(x = x_69_cast_fp16, y = input_99_cast_fp16)[name = string("input_101_cast_fp16")];
            tensor<int32, [1]> input_103_axes_0 = const()[name = string("input_103_axes_0"), val = tensor<int32, [1]>([-1])];
            tensor<fp16, [256]> m_object_transformer_blocks_2_ffn_norm_weight_to_fp16 = const()[name = string("m_object_transformer_blocks_2_ffn_norm_weight_to_fp16"), val = tensor<fp16, [256]>(BLOBFILE(path = string("@model_path/weights/weight.bin"), offset = uint64(19253632)))];
            tensor<fp16, [256]> m_object_transformer_blocks_2_ffn_norm_bias_to_fp16 = const()[name = string("m_object_transformer_blocks_2_ffn_norm_bias_to_fp16"), val = tensor<fp16, [256]>(BLOBFILE(path = string("@model_path/weights/weight.bin"), offset = uint64(19254208)))];
            tensor<fp16, [1, 16, 256]> input_103_cast_fp16 = layer_norm(axes = input_103_axes_0, beta = m_object_transformer_blocks_2_ffn_norm_bias_to_fp16, epsilon = var_187_to_fp16, gamma = m_object_transformer_blocks_2_ffn_norm_weight_to_fp16, x = input_101_cast_fp16)[name = string("input_103_cast_fp16")];
            tensor<fp16, [2048, 256]> m_object_transformer_blocks_2_ffn_linear1_weight_to_fp16 = const()[name = string("m_object_transformer_blocks_2_ffn_linear1_weight_to_fp16"), val = tensor<fp16, [2048, 256]>(BLOBFILE(path = string("@model_path/weights/weight.bin"), offset = uint64(19254784)))];
            tensor<fp16, [2048]> m_object_transformer_blocks_2_ffn_linear1_bias_to_fp16 = const()[name = string("m_object_transformer_blocks_2_ffn_linear1_bias_to_fp16"), val = tensor<fp16, [2048]>(BLOBFILE(path = string("@model_path/weights/weight.bin"), offset = uint64(20303424)))];
            tensor<fp16, [1, 16, 2048]> linear_38_cast_fp16 = linear(bias = m_object_transformer_blocks_2_ffn_linear1_bias_to_fp16, weight = m_object_transformer_blocks_2_ffn_linear1_weight_to_fp16, x = input_103_cast_fp16)[name = string("linear_38_cast_fp16")];
            tensor<fp16, [1, 16, 2048]> input_107_cast_fp16 = relu(x = linear_38_cast_fp16)[name = string("input_107_cast_fp16")];
            tensor<fp16, [256, 2048]> m_object_transformer_blocks_2_ffn_linear2_weight_to_fp16 = const()[name = string("m_object_transformer_blocks_2_ffn_linear2_weight_to_fp16"), val = tensor<fp16, [256, 2048]>(BLOBFILE(path = string("@model_path/weights/weight.bin"), offset = uint64(20307584)))];
            tensor<fp16, [256]> m_object_transformer_blocks_2_ffn_linear2_bias_to_fp16 = const()[name = string("m_object_transformer_blocks_2_ffn_linear2_bias_to_fp16"), val = tensor<fp16, [256]>(BLOBFILE(path = string("@model_path/weights/weight.bin"), offset = uint64(21356224)))];
            tensor<fp16, [1, 16, 256]> linear_39_cast_fp16 = linear(bias = m_object_transformer_blocks_2_ffn_linear2_bias_to_fp16, weight = m_object_transformer_blocks_2_ffn_linear2_weight_to_fp16, x = input_107_cast_fp16)[name = string("linear_39_cast_fp16")];
            tensor<fp16, [1, 16, 256]> mem_cast_fp16 = add(x = input_101_cast_fp16, y = linear_39_cast_fp16)[name = string("mem_cast_fp16")];
            tensor<fp16, [1, 16, 256]> x_79_cast_fp16 = add(x = mem_cast_fp16, y = x_pe_cast_fp16)[name = string("x_79_cast_fp16")];
            tensor<int32, [3]> key_27_perm_0 = const()[name = string("key_27_perm_0"), val = tensor<int32, [3]>([1, 0, 2])];
            tensor<int32, [3]> value_27_perm_0 = const()[name = string("value_27_perm_0"), val = tensor<int32, [3]>([1, 0, 2])];
            tensor<fp16, [256, 256]> var_1397_0_to_fp16 = const()[name = string("op_1397_0_to_fp16"), val = tensor<fp16, [256, 256]>(BLOBFILE(path = string("@model_path/weights/weight.bin"), offset = uint64(21356800)))];
            tensor<fp16, [256]> var_1400_0_to_fp16 = const()[name = string("op_1400_0_to_fp16"), val = tensor<fp16, [256]>(BLOBFILE(path = string("@model_path/weights/weight.bin"), offset = uint64(21487936)))];
            tensor<fp16, [576, 1, 256]> linear_40_cast_fp16 = linear(bias = var_1400_0_to_fp16, weight = var_1397_0_to_fp16, x = key_21_cast_fp16)[name = string("linear_40_cast_fp16")];
            tensor<fp16, [256, 256]> var_1397_1_to_fp16 = const()[name = string("op_1397_1_to_fp16"), val = tensor<fp16, [256, 256]>(BLOBFILE(path = string("@model_path/weights/weight.bin"), offset = uint64(21488512)))];
            tensor<fp16, [256]> var_1400_1_to_fp16 = const()[name = string("op_1400_1_to_fp16"), val = tensor<fp16, [256]>(BLOBFILE(path = string("@model_path/weights/weight.bin"), offset = uint64(21619648)))];
            tensor<fp16, [16, 1, 256]> key_27_cast_fp16 = transpose(perm = key_27_perm_0, x = x_79_cast_fp16)[name = string("transpose_26")];
            tensor<fp16, [16, 1, 256]> linear_41_cast_fp16 = linear(bias = var_1400_1_to_fp16, weight = var_1397_1_to_fp16, x = key_27_cast_fp16)[name = string("linear_41_cast_fp16")];
            tensor<fp16, [256, 256]> var_1397_2_to_fp16 = const()[name = string("op_1397_2_to_fp16"), val = tensor<fp16, [256, 256]>(BLOBFILE(path = string("@model_path/weights/weight.bin"), offset = uint64(21620224)))];
            tensor<fp16, [256]> var_1400_2_to_fp16 = const()[name = string("op_1400_2_to_fp16"), val = tensor<fp16, [256]>(BLOBFILE(path = string("@model_path/weights/weight.bin"), offset = uint64(21751360)))];
            tensor<fp16, [16, 1, 256]> value_27_cast_fp16 = transpose(perm = value_27_perm_0, x = mem_cast_fp16)[name = string("transpose_25")];
            tensor<fp16, [16, 1, 256]> linear_42_cast_fp16 = linear(bias = var_1400_2_to_fp16, weight = var_1397_2_to_fp16, x = value_27_cast_fp16)[name = string("linear_42_cast_fp16")];
            tensor<int32, [3]> var_1409 = const()[name = string("op_1409"), val = tensor<int32, [3]>([576, 8, 32])];
            tensor<fp16, [576, 8, 32]> var_1410_cast_fp16 = reshape(shape = var_1409, x = linear_40_cast_fp16)[name = string("op_1410_cast_fp16")];
            tensor<int32, [3]> q_perm_0 = const()[name = string("q_perm_0"), val = tensor<int32, [3]>([1, 0, 2])];
            tensor<int32, [3]> var_1416 = const()[name = string("op_1416"), val = tensor<int32, [3]>([16, 8, 32])];
            tensor<fp16, [16, 8, 32]> var_1417_cast_fp16 = reshape(shape = var_1416, x = linear_41_cast_fp16)[name = string("op_1417_cast_fp16")];
            tensor<int32, [3]> k_perm_0 = const()[name = string("k_perm_0"), val = tensor<int32, [3]>([1, 0, 2])];
            tensor<int32, [3]> var_1423 = const()[name = string("op_1423"), val = tensor<int32, [3]>([16, 8, 32])];
            tensor<fp16, [16, 8, 32]> var_1424_cast_fp16 = reshape(shape = var_1423, x = linear_42_cast_fp16)[name = string("op_1424_cast_fp16")];
            tensor<int32, [3]> v_perm_0 = const()[name = string("v_perm_0"), val = tensor<int32, [3]>([1, 0, 2])];
            tensor<int32, [4]> var_1427 = const()[name = string("op_1427"), val = tensor<int32, [4]>([1, 8, 576, 32])];
            tensor<fp16, [8, 576, 32]> q_cast_fp16 = transpose(perm = q_perm_0, x = var_1410_cast_fp16)[name = string("transpose_24")];
            tensor<fp16, [1, 8, 576, 32]> query_cast_fp16 = reshape(shape = var_1427, x = q_cast_fp16)[name = string("query_cast_fp16")];
            tensor<int32, [4]> var_1429 = const()[name = string("op_1429"), val = tensor<int32, [4]>([1, 8, 16, 32])];
            tensor<fp16, [8, 16, 32]> k_cast_fp16 = transpose(perm = k_perm_0, x = var_1417_cast_fp16)[name = string("transpose_23")];
            tensor<fp16, [1, 8, 16, 32]> key_cast_fp16 = reshape(shape = var_1429, x = k_cast_fp16)[name = string("key_cast_fp16")];
            tensor<int32, [4]> var_1431 = const()[name = string("op_1431"), val = tensor<int32, [4]>([1, 8, 16, 32])];
            tensor<fp16, [8, 16, 32]> v_cast_fp16 = transpose(perm = v_perm_0, x = var_1424_cast_fp16)[name = string("transpose_22")];
            tensor<fp16, [1, 8, 16, 32]> value_cast_fp16 = reshape(shape = var_1431, x = v_cast_fp16)[name = string("value_cast_fp16")];
            bool var_1434_transpose_x_1 = const()[name = string("op_1434_transpose_x_1"), val = bool(false)];
            bool var_1434_transpose_y_1 = const()[name = string("op_1434_transpose_y_1"), val = bool(true)];
            tensor<fp16, [1, 8, 576, 16]> var_1434_cast_fp16 = matmul(transpose_x = var_1434_transpose_x_1, transpose_y = var_1434_transpose_y_1, x = query_cast_fp16, y = key_cast_fp16)[name = string("op_1434_cast_fp16")];
            fp16 var_1435_to_fp16 = const()[name = string("op_1435_to_fp16"), val = fp16(0x1.6ap-3)];
            tensor<fp16, [1, 8, 576, 16]> attn_27_cast_fp16 = mul(x = var_1434_cast_fp16, y = var_1435_to_fp16)[name = string("attn_27_cast_fp16")];
            tensor<fp16, [1, 8, 576, 16]> attn_cast_fp16 = softmax(axis = var_201, x = attn_27_cast_fp16)[name = string("attn_cast_fp16")];
            bool attn_output_65_transpose_x_0 = const()[name = string("attn_output_65_transpose_x_0"), val = bool(false)];
            bool attn_output_65_transpose_y_0 = const()[name = string("attn_output_65_transpose_y_0"), val = bool(false)];
            tensor<fp16, [1, 8, 576, 32]> attn_output_65_cast_fp16 = matmul(transpose_x = attn_output_65_transpose_x_0, transpose_y = attn_output_65_transpose_y_0, x = attn_cast_fp16, y = value_cast_fp16)[name = string("attn_output_65_cast_fp16")];
            tensor<int32, [4]> var_1439 = const()[name = string("op_1439"), val = tensor<int32, [4]>([2, 0, 1, 3])];
            tensor<int32, [2]> var_1444 = const()[name = string("op_1444"), val = tensor<int32, [2]>([576, 256])];
            tensor<fp16, [576, 1, 8, 32]> var_1440_cast_fp16 = transpose(perm = var_1439, x = attn_output_65_cast_fp16)[name = string("transpose_21")];
            tensor<fp16, [576, 256]> attn_output_67_cast_fp16 = reshape(shape = var_1444, x = var_1440_cast_fp16)[name = string("attn_output_67_cast_fp16")];
            tensor<fp16, [256, 256]> m_object_transformer_blocks_2_read_from_query_cross_attn_out_proj_weight_to_fp16 = const()[name = string("m_object_transformer_blocks_2_read_from_query_cross_attn_out_proj_weight_to_fp16"), val = tensor<fp16, [256, 256]>(BLOBFILE(path = string("@model_path/weights/weight.bin"), offset = uint64(21751936)))];
            tensor<fp16, [256]> m_object_transformer_blocks_2_read_from_query_cross_attn_out_proj_bias_to_fp16 = const()[name = string("m_object_transformer_blocks_2_read_from_query_cross_attn_out_proj_bias_to_fp16"), val = tensor<fp16, [256]>(BLOBFILE(path = string("@model_path/weights/weight.bin"), offset = uint64(21883072)))];
            tensor<fp16, [576, 256]> linear_43_cast_fp16 = linear(bias = m_object_transformer_blocks_2_read_from_query_cross_attn_out_proj_bias_to_fp16, weight = m_object_transformer_blocks_2_read_from_query_cross_attn_out_proj_weight_to_fp16, x = attn_output_67_cast_fp16)[name = string("linear_43_cast_fp16")];
            tensor<int32, [3]> var_1448 = const()[name = string("op_1448"), val = tensor<int32, [3]>([576, 1, 256])];
            tensor<fp16, [576, 1, 256]> attn_output_cast_fp16 = reshape(shape = var_1448, x = linear_43_cast_fp16)[name = string("attn_output_cast_fp16")];
            tensor<int32, [3]> input_109_perm_0 = const()[name = string("input_109_perm_0"), val = tensor<int32, [3]>([1, 0, 2])];
            tensor<fp16, [1, 576, 256]> input_109_cast_fp16 = transpose(perm = input_109_perm_0, x = attn_output_cast_fp16)[name = string("transpose_20")];
            tensor<fp16, [1, 576, 256]> pixel_flat_9_cast_fp16 = add(x = var_1190_cast_fp16, y = input_109_cast_fp16)[name = string("pixel_flat_9_cast_fp16")];
            tensor<int32, [4]> var_1462 = const()[name = string("op_1462"), val = tensor<int32, [4]>([1, 32, 18, 256])];
            tensor<fp16, [1, 32, 18, 256]> pixel_flat_cast_fp16 = reshape(shape = var_1462, x = pixel_flat_9_cast_fp16)[name = string("pixel_flat_cast_fp16")];
            tensor<int32, [4]> var_1464 = const()[name = string("op_1464"), val = tensor<int32, [4]>([0, 3, 1, 2])];
            tensor<fp16, [1, 256, 32, 18]> var_1465_cast_fp16 = transpose(perm = var_1464, x = pixel_flat_cast_fp16)[name = string("transpose_19")];
            tensor<fp16, [1, 256, 32, 18]> input_113_cast_fp16 = relu(x = var_1465_cast_fp16)[name = string("input_113_cast_fp16")];
            string input_115_pad_type_0 = const()[name = string("input_115_pad_type_0"), val = string("custom")];
            tensor<int32, [4]> input_115_pad_0 = const()[name = string("input_115_pad_0"), val = tensor<int32, [4]>([1, 1, 1, 1])];
            tensor<int32, [2]> input_115_strides_0 = const()[name = string("input_115_strides_0"), val = tensor<int32, [2]>([1, 1])];
            tensor<int32, [2]> input_115_dilations_0 = const()[name = string("input_115_dilations_0"), val = tensor<int32, [2]>([1, 1])];
            int32 input_115_groups_0 = const()[name = string("input_115_groups_0"), val = int32(1)];
            tensor<fp16, [256, 256, 3, 3]> m_object_transformer_blocks_2_pixel_ffn_conv_conv1_weight_to_fp16 = const()[name = string("m_object_transformer_blocks_2_pixel_ffn_conv_conv1_weight_to_fp16"), val = tensor<fp16, [256, 256, 3, 3]>(BLOBFILE(path = string("@model_path/weights/weight.bin"), offset = uint64(21883648)))];
            tensor<fp16, [256]> m_object_transformer_blocks_2_pixel_ffn_conv_conv1_bias_to_fp16 = const()[name = string("m_object_transformer_blocks_2_pixel_ffn_conv_conv1_bias_to_fp16"), val = tensor<fp16, [256]>(BLOBFILE(path = string("@model_path/weights/weight.bin"), offset = uint64(23063360)))];
            tensor<fp16, [1, 256, 32, 18]> input_115_cast_fp16 = conv(bias = m_object_transformer_blocks_2_pixel_ffn_conv_conv1_bias_to_fp16, dilations = input_115_dilations_0, groups = input_115_groups_0, pad = input_115_pad_0, pad_type = input_115_pad_type_0, strides = input_115_strides_0, weight = m_object_transformer_blocks_2_pixel_ffn_conv_conv1_weight_to_fp16, x = input_113_cast_fp16)[name = string("input_115_cast_fp16")];
            tensor<fp16, [1, 256, 32, 18]> input_117_cast_fp16 = relu(x = input_115_cast_fp16)[name = string("input_117_cast_fp16")];
            string x_83_pad_type_0 = const()[name = string("x_83_pad_type_0"), val = string("custom")];
            tensor<int32, [4]> x_83_pad_0 = const()[name = string("x_83_pad_0"), val = tensor<int32, [4]>([1, 1, 1, 1])];
            tensor<int32, [2]> x_83_strides_0 = const()[name = string("x_83_strides_0"), val = tensor<int32, [2]>([1, 1])];
            tensor<int32, [2]> x_83_dilations_0 = const()[name = string("x_83_dilations_0"), val = tensor<int32, [2]>([1, 1])];
            int32 x_83_groups_0 = const()[name = string("x_83_groups_0"), val = int32(1)];
            tensor<fp16, [256, 256, 3, 3]> m_object_transformer_blocks_2_pixel_ffn_conv_conv2_weight_to_fp16 = const()[name = string("m_object_transformer_blocks_2_pixel_ffn_conv_conv2_weight_to_fp16"), val = tensor<fp16, [256, 256, 3, 3]>(BLOBFILE(path = string("@model_path/weights/weight.bin"), offset = uint64(23063936)))];
            tensor<fp16, [256]> m_object_transformer_blocks_2_pixel_ffn_conv_conv2_bias_to_fp16 = const()[name = string("m_object_transformer_blocks_2_pixel_ffn_conv_conv2_bias_to_fp16"), val = tensor<fp16, [256]>(BLOBFILE(path = string("@model_path/weights/weight.bin"), offset = uint64(24243648)))];
            tensor<fp16, [1, 256, 32, 18]> x_83_cast_fp16 = conv(bias = m_object_transformer_blocks_2_pixel_ffn_conv_conv2_bias_to_fp16, dilations = x_83_dilations_0, groups = x_83_groups_0, pad = x_83_pad_0, pad_type = x_83_pad_type_0, strides = x_83_strides_0, weight = m_object_transformer_blocks_2_pixel_ffn_conv_conv2_weight_to_fp16, x = input_117_cast_fp16)[name = string("x_83_cast_fp16")];
            tensor<int32, [2]> w_59_axes_0 = const()[name = string("w_59_axes_0"), val = tensor<int32, [2]>([-2, -1])];
            bool w_59_keep_dims_0 = const()[name = string("w_59_keep_dims_0"), val = bool(true)];
            tensor<fp16, [1, 256, 1, 1]> w_59_cast_fp16 = reduce_mean(axes = w_59_axes_0, keep_dims = w_59_keep_dims_0, x = x_83_cast_fp16)[name = string("w_59_cast_fp16")];
            tensor<int32, [4]> var_1491 = const()[name = string("op_1491"), val = tensor<int32, [4]>([1, 1, 256, 1])];
            tensor<fp16, [1, 1, 256, 1]> w_61_cast_fp16 = reshape(shape = var_1491, x = w_59_cast_fp16)[name = string("w_61_cast_fp16")];
            string w_63_pad_type_0 = const()[name = string("w_63_pad_type_0"), val = string("custom")];
            tensor<int32, [4]> w_63_pad_0 = const()[name = string("w_63_pad_0"), val = tensor<int32, [4]>([2, 2, 0, 0])];
            tensor<int32, [2]> w_63_strides_0 = const()[name = string("w_63_strides_0"), val = tensor<int32, [2]>([1, 1])];
            tensor<int32, [2]> w_63_dilations_0 = const()[name = string("w_63_dilations_0"), val = tensor<int32, [2]>([1, 1])];
            int32 w_63_groups_0 = const()[name = string("w_63_groups_0"), val = int32(1)];
            tensor<fp16, [1, 1, 5, 1]> k2_to_fp16 = const()[name = string("k2_to_fp16"), val = tensor<fp16, [1, 1, 5, 1]>([[[[0x1.32p-1], [0x1.a2p-3], [0x1.984p-4], [0x1.634p-3], [0x1.f4p-5]]]])];
            tensor<fp16, [1, 1, 256, 1]> w_63_cast_fp16 = conv(dilations = w_63_dilations_0, groups = w_63_groups_0, pad = w_63_pad_0, pad_type = w_63_pad_type_0, strides = w_63_strides_0, weight = k2_to_fp16, x = w_61_cast_fp16)[name = string("w_63_cast_fp16")];
            tensor<int32, [4]> var_1499 = const()[name = string("op_1499"), val = tensor<int32, [4]>([1, 256, 1, 1])];
            tensor<fp16, [1, 256, 1, 1]> var_1500_cast_fp16 = reshape(shape = var_1499, x = w_63_cast_fp16)[name = string("op_1500_cast_fp16")];
            tensor<fp16, [1, 256, 1, 1]> w_cast_fp16 = sigmoid(x = var_1500_cast_fp16)[name = string("w_cast_fp16")];
            tensor<fp16, [1, 256, 32, 18]> var_1502_cast_fp16 = mul(x = x_83_cast_fp16, y = w_cast_fp16)[name = string("op_1502_cast_fp16")];
            tensor<fp16, [1, 256, 32, 18]> x_cast_fp16 = add(x = var_1502_cast_fp16, y = var_1465_cast_fp16)[name = string("x_cast_fp16")];
            tensor<int32, [5]> var_1504 = const()[name = string("op_1504"), val = tensor<int32, [5]>([1, 1, 256, 32, 18])];
            tensor<fp16, [1, 1, 256, 32, 18]> mem_readout = reshape(shape = var_1504, x = x_cast_fp16)[name = string("input_119_cast_fp16")];
        } -> (mem_readout);
}